weights/siren_90785_l2.pth (torch, 800730 bytes, 10 tensors)

net.0.linear.weight f4 [256, 2]
000000 98 59 e8 3e 50 11 bf 3e a6 f9 b1 3e a7 8b 73 be
       0.45380855 0.37317896 0.3476078 -0.23783742
000010 6f 91 e8 3d f1 76 a9 be 99 24 96 3e 2e 43 ae 3e
       0.11355864 -0.33098558 0.29324797 0.3403563
000020 fa ad 7e 3e c0 ac 06 be 39 38 40 3e a7 69 1a 3e
       0.24871054 -0.13151836 0.18771447 0.15079366
000030 39 e3 71 b9 45 cb 89 b9 ed 5d e7 be fa a2 ea bd
       -0.00023068198 -0.00026282124 -0.45188847 -0.114568666
000040 61 53 07 bd 38 0d d7 3e 5c 1a 00 3d 12 06 52 be
       -0.0330385 0.42002273 0.03127514 -0.20510128
000050 86 81 f8 bd 02 3f 7a be 17 9c 56 be 49 8c 9a 3c
       -0.1213408 -0.24438098 -0.20957981 0.018865721
000060 5b 0b 3d 3e 03 2a 61 be 6f 08 ec 3d b0 88 3d be
       0.18461363 -0.21988682 0.11525046 -0.18509173
000070 0e 1e 04 3e 1c 7b a8 bd 3f 07 f7 3d 1c 24 47 3e
       0.1290209 -0.08226606 0.12061929 0.19447368
000080 1e ec b4 3e b4 d3 03 bf b2 25 db 3e b9 5b b9 3e
       0.35336393 -0.5149491 0.42802197 0.3620279
000090 a3 c3 ce be 44 78 27 be 0b a8 99 3d 1d 6e 27 be
       -0.40383634 -0.16354471 0.07502755 -0.16350599
0000a0 38 7d 8a be d8 9c de be 4c 85 94 be bc cf 00 3f
       -0.2704866 -0.43479037 -0.29007947 0.5031698
0000b0 af ec 2b be 8f 89 85 be 90 52 ff bd b4 04 37 be
       -0.16789506 -0.2608151 -0.124669194 -0.17872888
0000c0 ca d8 ea 3d 16 e6 fc bc 68 bf 79 be d4 59 48 3e
       0.114671305 -0.030871432 -0.24389422 0.19565517
0000d0 54 a5 8e 3e fc b1 ca 3e 52 65 a0 be 8c 30 e1 3e
       0.2786051 0.39588916 -0.313273 0.4398235
0000e0 04 0b 49 bd 40 af fa bd 16 38 83 bd 1d 5c d4 bc
       -0.04908277 -0.122404575 -0.06407182 -0.02592283
0000f0 a0 9a 27 be fe 05 e9 be 0c dc b9 3e 31 5b 83 3b
       -0.16367579 -0.45512384 0.36300695 0.0040086736
000100 ec 55 f7 3e 13 a5 4d 3e fc c5 c7 3e 6a ff 60 be
       0.4830774 0.20082502 0.39018238 -0.21972433
000110 7b 33 a1 bd 5d 0d 46 3e e3 3e e1 be 09 3e a8 3c
       -0.07871147 0.19341035 -0.4399329 0.020537393
000120 fa 32 f6 3e 97 85 b2 3e aa 76 9c 3d c4 8e 18 bd
       0.48085767 0.34867546 0.07639821 -0.037245527
000130 21 46 2b 3d b4 3a 2e be f6 cb f1 3c c7 b1 b1 3e
       0.041814927 -0.17014581 0.029516201 0.34705946
000140 04 70 f1 be 19 34 a1 be 4a 90 f0 3b 7c 3f a3 3c
       -0.47155774 -0.3148506 0.0073414193 0.019927733
000150 52 03 82 3d 02 79 25 be 91 4a f1 3e 63 8c 8a be
       0.063482895 -0.16159442 0.47127202 -0.27060232
000160 fa 64 87 be be 6e 61 3d 13 c3 84 3e d3 7a f8 3e
       -0.26444227 0.055037253 0.2593008 0.48531207
000170 02 17 e6 be 07 65 00 bf 96 65 1c be 84 39 8f 3e
       -0.4493943 -0.50154155 -0.15273127 0.27973568
000180 56 c7 ad 3d 2c 79 e9 be c1 8d b3 be ef 2e 54 be
       0.08485286 -0.4560026 -0.35069087 -0.20721029
000190 e5 46 9d 3d 56 fb 6c 3e 0f 8c e9 be 01 df d4 3c
       0.07679538 0.23142752 -0.4561467 0.025985243
0001a0 c4 70 a6 3e f1 7c d9 3e b6 14 de 3e 04 d1 eb bd
       0.32507908 0.42478135 0.43375176 -0.11514476
0001b0 20 c6 95 3e 37 30 8a be fa 70 7f 3e d1 43 f5 3e
       0.2925272 -0.2698991 0.24945441 0.47903302
0001c0 a8 af 26 bd 15 4b 63 3d 48 89 bc bd 20 29 ca be
       -0.040694863 0.055491526 -0.09205872 -0.394845
0001d0 1f 77 12 be 4c 8c b2 be c3 5f 2e 3d f2 dc 0d 3e
       -0.14303254 -0.34872663 0.042571794 0.13853815
0001e0 e2 ff ea 3e b9 99 c9 be 62 bc 0f be 03 67 d0 3e
       0.45898348 -0.39375094 -0.14036706 0.40703592
0001f0 49 83 7d 3e 33 a6 86 be da fa b9 3e 34 77 d7 bd
       0.24757113 -0.26298675 0.36324197 -0.10520783
000200 2c 77 e5 3e 74 ed e0 3e 4c af bd 3e 0b 0e ec be
       0.44817483 0.43931162 0.37047803 -0.46104464
000210 66 c3 d9 bd 22 dc 08 be 54 93 f2 bc 94 c7 2e be
       -0.106329724 -0.13365224 -0.029611267 -0.1706832
000220 35 b4 5f be e2 61 49 3e f0 d5 7f be 3f 24 b7 3e
       -0.21846087 0.19666246 -0.24983954 0.3576984
000230 cb 3b 5f be ae 6f e1 bd 96 e6 a1 be 34 32 21 3e
       -0.21800153 -0.11007629 -0.31621236 0.15741807
000240 98 4c 5f be be ec 27 3e bf 91 9c 3e df 1d ba 3d
       -0.21806562 0.16398904 0.30579945 0.09087729
000250 3c 75 02 bf 07 13 e8 3c f5 40 86 3e 01 be 11 3e
       -0.50960135 0.028329385 0.26221433 0.14232637
000260 51 f5 48 3e 4e 2e 64 3c 73 ac c2 bd 2c 31 63 3b
       0.19624831 0.0139270555 -0.09505548 0.003466676
000270 31 61 c6 3d 25 01 f7 be ce 2f ed be 1b 30 a5 be
       0.096865065 -0.4824306 -0.46325535 -0.32263264
000280 cd 36 d7 3e 6c c4 0c 3d 1b 02 ee bd db 6d 9e be
       0.42033997 0.03436701 -0.11621495 -0.30943188
000290 62 8c c3 be b6 00 51 3e 83 b4 e7 3e e6 18 eb bc
       -0.3819304 0.20410427 0.45254907 -0.028698396
0002a0 77 38 2a 3e 9f 64 78 be a4 9f 21 be 81 06 a4 be
       0.16623102 -0.24257134 -0.15783554 -0.32036212
0002b0 22 54 aa 3e ca 91 90 3e e5 a5 1e be 53 08 c0 bd
       0.33267313 0.28236228 -0.15492971 -0.09376588
0002c0 51 e7 f9 be 7a c6 d6 3e dd 61 6e 3d 15 63 ce be
       -0.48809293 0.419483 0.0581988 -0.4030997
0002d0 90 74 d6 3e a4 dd 0b bd d2 5c 02 3f de 68 ff be
       0.41885805 -0.03414692 0.5092288 -0.49884695
0002e0 80 26 aa 3e 7d 03 3a be cc 2d 8b 3e 74 7b ca bd
       0.33232498 -0.18165393 0.27183378 -0.09886828
0002f0 53 f2 b3 3d 67 1e ec 3e 5d 60 28 be fa 42 d7 be
       0.08786454 0.46116945 -0.1644301 -0.42043287
000300 3c 97 aa be 00 d7 ed 3d ef f4 3f 3d da 77 6c 3e
       -0.33318508 0.116132736 0.046864446 0.23092595
000310 8a 4a 88 bd 26 57 6e be 77 ad 3f be 04 92 0a be
       -0.06654842 -0.23275432 -0.18718515 -0.13532263
000320 9d 23 ca be 45 63 8d be ea ec d6 be a8 06 cc bd
       -0.39480296 -0.276148 -0.41977626 -0.09962207
000330 ec 50 01 3f 51 d1 d4 3e ed ce 9b be f0 6f 08 be
       0.505141 0.41565946 -0.3043131 -0.13323951
000340 35 1d 5b 3e 94 cd f8 3e b4 e9 c1 3e 33 b2 50 be
       0.2139786 0.48594344 0.37873614 -0.20380478
000350 81 ee b5 3d ba 7e f3 3e 36 be a1 be 40 9f 0c be
       0.08883382 0.47557622 -0.31590432 -0.13732624
000360 08 34 94 3d 84 7d 9f 3e a1 d8 5a 3d ea 16 2b be
       0.07236487 0.31150448 0.05342925 -0.1670796
000370 20 93 48 be 6f 26 b8 3e 9c e2 b6 be 35 bd f0 be
       -0.19587374 0.35966823 -0.35719764 -0.47019354
000380 3f 9c 17 be c9 45 fd 3e 56 1c ae 3e 06 91 78 3c
       -0.14805697 0.49467304 0.34005994 0.015171295
000390 db 2f a2 be d4 68 d0 3b 13 9e f0 be 56 be fa be
       -0.31677136 0.0063601527 -0.469956 -0.4897334
0003a0 26 26 2a 3e f5 53 5a bd b2 4a 02 39 fb 58 57 39
       0.16616115 -0.053302724 0.00012425592 0.00020537146
0003b0 71 9d 6a be b0 93 d3 be d6 b2 42 3e ac 57 e1 3e
       -0.22911622 -0.41323614 0.19013533 0.440122
0003c0 4b 0d 7c 3e 55 9b 00 bf 90 16 10 3e 2e 7b e8 be
       0.24614446 -0.5023702 0.14071107 -0.4540648
0003d0 8c 2d 1d 3e 9a 8b 4b 3e ad c0 21 bd bc 11 a1 3e
       0.15349406 0.19877473 -0.03949039 0.31458843
0003e0 a6 c2 88 3e d4 82 0c be 2c 30 4b be 43 70 65 be
       0.26711005 -0.13721782 -0.19842595 -0.22406106
0003f0 3a 2d f5 be 2c 13 ae be a0 60 a9 be ba c5 d6 be
       -0.47886068 -0.33999002 -0.33081532 -0.41947728

net.0.linear.bias f4 [256]
000000 cf bd 9a 3e d0 2f 92 3e 46 8e 1a 3f 10 d4 54 be
       0.30222937 0.28552103 0.6037334 -0.2078402
000010 5e d9 13 bf 33 84 9c be 03 a5 d6 be c3 bc 87 be
       -0.5775355 -0.3056961 -0.4192277 -0.265112
000020 59 73 d7 be d9 58 16 bf 63 f3 dc 3e f9 ec be bc
       -0.4208019 -0.5872932 0.4315444 -0.023306357
000030 76 ac 28 3f 3d bd 6c 3d a9 57 c5 3e b4 99 47 be
       0.65888155 0.05779766 0.38543442 -0.19492227
000040 80 fd d9 be f7 d4 0a 3f 39 b3 04 bf 30 8d 3a 3e
       -0.42576218 0.5423121 -0.5183597 0.18217921
000050 ad de 2d 3f cc 6b 21 3f 3f 59 07 bd 9b ca cc 3d
       0.679179 0.6305511 -0.033044096 0.099995814
000060 d2 a7 14 bf 1d 90 be be e8 c1 29 3f 25 48 ed 3e
       -0.58068573 -0.37219325 0.663115 0.46344104
000070 8e b7 83 3e 14 12 85 3e 16 c9 9d bc 72 46 92 3e
       0.2572598 0.25990355 -0.019260924 0.2856937
000080 95 65 50 3e 25 16 e5 3c 0e 82 01 bf cf 82 d8 3e
       0.2035125 0.02796466 -0.5058907 0.422873
000090 b5 27 66 be 15 87 9e 3d f5 27 d4 be 85 c2 b5 be
       -0.22476085 0.077406086 -0.41436735 -0.3549997
0000a0 bc ff 1c 3f ef 67 02 3f 00 4e e0 be dd 1d 8d 3d
       0.6132772 0.5093984 -0.4380951 0.068904616
0000b0 f6 57 a3 be c1 cc d5 be 46 eb c7 3b 87 03 fe be
       -0.31903046 -0.41757777 0.006101045 -0.49612066
0000c0 98 9c bc 3b 2b 53 06 3f f1 3f 31 bf f6 6e d9 3e
       0.005755972 0.52470654 -0.6923819 0.4246747
0000d0 0b ad 00 bf f8 47 1e be 55 4a f9 bd 81 87 85 be
       -0.5026404 -0.15457141 -0.12172381 -0.26079944
0000e0 e8 6e 58 be f6 73 a8 3e c0 a5 cc be 68 25 55 bd
       -0.21136057 0.3290097 -0.39970207 -0.052037627
0000f0 1e 6d 31 3f 15 f3 d5 be ac 16 a8 3e 52 51 82 be
       0.69307125 -0.4178702 0.32829797 -0.25452667
000100 4b 58 32 3f df 19 bf 3e 96 fc cc 3e c6 d6 f3 3e
       0.69665974 0.37324426 0.40036458 0.47624797
000110 1a 30 a9 bd 07 22 08 3f 17 28 23 bf fa 24 12 3f
       -0.08261128 0.5317692 -0.6373305 0.5708767
000120 0b 71 4a bd c5 99 f7 3e 29 5d 27 bf 66 04 31 3d
       -0.049424212 0.48359504 -0.65376526 0.043217085
000130 b3 3d fc 3d 4b 33 b8 be 47 24 54 bd a7 f3 72 be
       0.12316456 -0.35976633 -0.05179241 -0.23725758
000140 48 6c 9d 3e 47 92 ea bb de 68 11 3e eb 25 07 3f
       0.30746675 -0.007158551 0.1420016 0.52792233
000150 ab b2 13 bf 7d 0e 16 bf dd cd e5 be ec 26 0a bf
       -0.576945 -0.5861586 -0.44883624 -0.5396564
000160 fa a6 d5 be 1d a1 5b bd 25 07 93 be f5 4e 15 be
       -0.41728956 -0.053620446 -0.28716388 -0.14580901
000170 13 00 75 be 01 7a 0f bf d5 80 05 be 69 27 d0 be
       -0.2392581 -0.5604554 -0.13037427 -0.40655068
000180 67 11 b7 be 69 0e 8d 3d 7e 38 1d be f4 12 c3 be
       -0.35755464 0.06887514 -0.15353581 -0.38100398
000190 b5 7d dc 3e d7 d2 2d bf a4 7c d8 bd ae 00 09 3f
       0.43064657 -0.6789984 -0.10570648 0.5351666
0001a0 61 f0 04 3f 04 e2 28 3f 40 9e 04 3f 6c a7 91 be
       0.5192929 0.6596987 0.5180397 -0.28448045
0001b0 38 60 de 3e e6 f3 07 bf 29 10 e8 be 71 66 e5 be
       0.43432784 -0.53106534 -0.4532483 -0.4480472
0001c0 a9 ee b4 bd af fa 0d be 93 c0 0b bf cd 59 3e 3b
       -0.08834583 -0.1386516 -0.5459072 0.0029045225
0001d0 23 d6 38 be d0 c3 a0 be dd cd 86 be 59 9c 3a 3e
       -0.18050437 -0.31399393 -0.26328936 0.18223704
0001e0 be e5 df 3e e3 b6 1d 3d 36 44 05 3f 21 61 dc be
       0.43729967 0.038504492 0.52057207 -0.43042853
0001f0 69 f8 d5 bb 66 8f c6 be 00 7d 31 bf 8a 0b c8 be
       -0.006529857 -0.3878128 -0.6933136 -0.39071304
000200 0e c6 29 3f 21 68 5f 3e 6c 1d 07 bf 82 31 e3 3d
       0.6631783 0.21817066 -0.5277927 0.11093427
000210 95 ae e1 3d c3 52 c5 3e 3d 0c 25 3f 98 9e 41 bd
       0.11019627 0.38539705 0.644718 -0.047270387
000220 36 48 d7 bd b0 7f c2 be 80 c6 aa bd bd e8 bb 3e
       -0.1051182 -0.37988043 -0.08338642 0.36701003
000230 fc a2 94 be 45 58 3f 3e a3 32 03 bf 30 23 36 be
       -0.29030597 0.18686016 -0.5124914 -0.1778686
000240 93 a2 08 be 4c 4e ae 3e 7a 62 82 bd e7 72 34 3f
       -0.13343267 0.3404411 -0.06366439 0.7048783
000250 f0 ac 21 bf e4 83 83 3e f0 28 34 bf fb 5e 1c bf
       -0.63154507 0.25686562 -0.70374966 -0.6108243
000260 15 06 08 bf af b6 5e 3e f8 d9 a1 3e 19 77 b8 be
       -0.5313428 0.21749376 0.3161161 -0.36028364
000270 91 d1 6b 3e dd ea 04 bf f3 a1 3e 3d 6a b1 b5 be
       0.23029162 -0.5192087 0.046541166 -0.3548692
000280 bc 28 06 bf 91 f9 3d 3e ee 2a 13 bf 4b 37 7c 3d
       -0.52405906 0.18552233 -0.5748738 0.06157617
000290 4c ad 8f be 5c 26 33 3f 8b 42 32 bf 7a 78 d4 3e
       -0.28061903 0.69980407 -0.69632787 0.41498166
0002a0 c4 01 94 3d 7b ba dc 3e 18 ca 2a 3f 3f 87 15 3f
       0.07226899 0.43111023 0.6671462 0.58409494
0002b0 93 91 86 be 87 39 52 3e 46 f9 20 3f b5 04 c6 3e
       -0.2628294 0.20529757 0.6288036 0.38675466
0002c0 d1 43 91 be dd ed 14 3f e6 9b e8 3e 09 da 22 bf
       -0.28372052 0.5817545 0.4543144 -0.63613945
0002d0 32 53 b2 3e 7c 1b 1c bf b2 32 bf bd 0a 2d 52 3e
       0.34829098 -0.6097944 -0.09335841 0.20524994
0002e0 54 dc ec be 00 52 12 3e 21 69 66 be f2 73 01 3f
       -0.46261847 0.14289093 -0.22501041 0.50567544
0002f0 9d eb bc be ba 70 1b 3f 4a 45 35 3f 9f c2 70 be
       -0.3689851 0.6071888 0.7080885 -0.23511742
000300 52 13 d5 be c0 65 24 bf e5 cc 1d be 04 b4 e3 3e
       -0.41616303 -0.6421776 -0.15410192 0.4447328
000310 8e 96 a2 3e 76 6f df 3c 97 c4 94 bd c3 2c a3 3d
       0.3175549 0.027274828 -0.07264059 0.07967522
000320 f4 6b 32 3f 3b 19 1c bf 52 3e 08 3f a2 4b 0c bf
       0.69695973 -0.60976 0.53220093 -0.54802907
000330 f9 68 79 be e4 a7 dc 3d d1 d5 c6 3e a9 df 28 bf
       -0.2435645 0.1077421 0.38835004 -0.6596628
000340 2b 8e 30 3f 81 97 a3 bd 6e 7b 16 bf 36 0c 67 be
       0.6896693 -0.079878815 -0.5878209 -0.22563252
000350 1a 8c 98 3e b5 ee 26 bf 30 0b 2b bf 95 d8 03 bd
       0.2979439 -0.6520799 -0.66813946 -0.03218897
000360 d5 31 31 bf aa 52 6f 3e fa c7 0b 3f 25 ab c5 3e
       -0.6921666 0.23371378 0.54602015 0.38607135
000370 08 99 9e 3e 39 7f 34 3f ea 98 7e 3e 2a 48 42 be
       0.3097613 0.70506626 0.2486302 -0.18972841
000380 6d 46 3b be 04 70 55 3e b0 4e d6 be 09 f1 1d 3f
       -0.18288584 0.20843512 -0.4185691 0.61695915
000390 ac aa 32 3e 23 67 35 3f a7 6e 07 be f9 f7 d4 be
       0.17447919 0.708605 -0.13225804 -0.41595438
0003a0 b0 92 ff 3e a4 cb eb be ce ae a0 be e5 fe 38 be
       0.499166 -0.46053803 -0.31383365 -0.18065985
0003b0 ff 4f bd 3e f4 0d d1 3e e8 bb 87 be 04 f5 97 3d
       0.36975095 0.40830958 -0.2651055 0.0741978
0003c0 be 5b 35 bf 42 2c f8 be 62 cf 1c bf f6 2c b4 be
       -0.7084311 -0.48471266 -0.6125394 -0.35190552
0003d0 49 7d 3e 3e f0 2c 68 3e b5 71 20 be 3b aa 86 be
       0.1860248 0.22673392 -0.15668376 -0.2630175
0003e0 41 79 13 bf 57 67 1b 3f 26 ed f6 bc 1a 22 25 3f
       -0.57606894 0.6070456 -0.030142378 0.6450516
0003f0 ab e5 d3 be b5 45 49 3e 25 71 e0 3d e3 7b 03 3d
       -0.4138616 0.19655497 0.109590806 0.03210057

net.1.linear.weight f4 [256, 256]
000000 90 fa ea bb b3 8e b8 3b de 84 11 ba ab e8 8e bb
       -0.0071709827 0.0056322454 -0.000555111 -0.0043612323
000010 2c 48 bb 3b b0 d0 1d 3a 25 7b 1f ba 91 38 42 3b
       0.0057153907 0.00060201716 -0.00060837186 0.0029635767
000020 60 df a5 bb 0c 96 c3 bb 99 bd 61 b9 6c a9 92 39
       -0.0050620288 -0.0059688147 -0.00021528303 0.0002797352
000030 7b 9a c7 3b 50 89 a6 3b 28 5b 8c bb 3c cc ad bb
       0.0060914136 0.005082287 -0.0042833276 -0.0053038877
000040 4b 8a 49 3c 95 f0 d2 bb cc 4c 53 bb 5f 6d 5b bb
       0.012301038 -0.006437371 -0.003224182 -0.0033481938
000050 2b 1e e0 3b 91 b6 48 bc e1 23 44 bb 7a a9 a4 3a
       0.006839534 -0.0122505585 -0.0029928612 0.0012562715
000060 3b bd 06 bb 65 e1 ba 3b 0c 94 15 b9 bd 96 9f bb
       -0.0020559567 0.0057031387 -0.00014264899 -0.0048702643
000070 f1 90 66 bb 62 ae 9f bb 13 94 ee 3a 92 30 98 3b
       -0.0035181607 -0.004873083 0.0018202089 0.004644462
000080 27 a7 69 bb f1 db eb 3a 4f 50 78 3b 1d b5 1e bb
       -0.003565261 0.0017994625 0.0037889665 -0.0024216839
000090 1f 90 10 3c 75 b3 b2 bb 2b d1 c1 bb be 5d f1 bb
       0.008823424 -0.005453522 -0.0059148273 -0.0073659113
0000a0 77 e1 04 bc bd 99 a5 3b 52 ee 61 bb 7b dc 1e 3b
       -0.008110396 0.0050537274 -0.0034474325 0.0024240303
0000b0 57 ae df 3a 74 c9 0a bb 22 04 26 3b b8 f5 74 ba
       0.0017065507 -0.0021177204 0.0025332053 -0.0009344476
0000c0 6e fe bb b9 fe a7 2d bb da 13 8c 39 f9 a2 c5 bb
       -0.00035856984 -0.0026497836 0.0002671767 -0.0060313907
0000d0 d5 cd c1 bb 96 f4 a3 b9 cb e3 40 3a f0 fb 16 bc
       -0.0059144297 -0.00031272013 0.00073581625 -0.00921534
0000e0 d9 79 b3 3a 1a 75 8a bb 41 53 7d 3b 72 83 dd 3b
       0.001369293 -0.0042253854 0.003865436 0.0067600543
0000f0 43 79 d0 bb 2f 91 2f 3b ce c6 c1 b8 c9 57 ae b9
       -0.006362112 0.0026789417 -9.2399874e-05 -0.0003325327
000100 f6 24 80 3b 7d 50 b6 3b 56 9e da 3b 96 8b b6 bb
       0.003910656 0.005563794 0.006671707 -0.005570839
000110 07 b4 fa ba f3 ad 7b 3b eb 8a 6f bb df 23 a2 3a
       -0.0019127139 0.0038403242 -0.0036551307 0.001237031
000120 76 31 0f bb 10 78 2d ba 97 8f e8 ba 09 68 4b bb
       -0.002184955 -0.0006617317 -0.0017742988 -0.0031037352
000130 19 93 56 bb a1 1a 4a 3b 96 25 d6 3b 49 d7 71 bb
       -0.0032741486 0.0030838626 0.0065352423 -0.0036902002
000140 77 1f 48 bb 80 69 c4 3b 75 9d b0 ba cc 24 be ba
       -0.0030536333 0.005994022 -0.001347466 -0.0014506816
000150 14 ed 02 bc 22 f9 ad ba 16 86 5b 3b 6c 1e 03 3b
       -0.007991094 -0.00132731 0.003349667 0.0020007147
000160 b3 fb c8 3b cd 9b f6 3b c8 f1 13 bb fe d2 b3 bc
       0.0061335205 0.007525897 -0.0022574533 -0.021951195
000170 ab 00 fd ba eb d4 2c 3b 44 7d a4 bb 74 ed 3b 39
       -0.0019302567 0.0026372026 -0.0050198156 0.00017922168
000180 e0 f3 1f bb 9a de 63 3b e3 4e 5a ba 44 98 4a 3b
       -0.0024406835 0.0034770132 -0.0008327795 0.0030913511
000190 62 95 1a 3c c7 e9 b9 3b 59 3f d9 38 cc a9 7a bb
       0.00943503 0.0056736204 0.00010359166 -0.003824818
0001a0 b5 9c de 3b a5 5f a8 3b 96 e2 08 bc 12 15 c4 3a
       0.0067935833 0.005138355 -0.008354804 0.0014959893
0001b0 44 b9 a8 3b 61 f9 b8 3b f5 26 95 ba 71 e0 7f bb
       0.0051490385 0.0056449627 -0.0011379408 -0.003904369
0001c0 0e c3 cd bb d8 dc 04 bb e3 d7 52 bb 07 c2 ed bb
       -0.006279356 -0.0020273235 -0.0032172136 -0.007255796
0001d0 0c 5d a6 ba 95 e0 7f 3b a0 b0 30 bb 2b 55 11 3b
       -0.0012692525 0.0039043773 -0.0026960745 0.0022176008
0001e0 0f 42 ee 3b f3 13 b7 3b 6b 84 2b ba 51 7e 86 bb
       0.0072710584 0.005587095 -0.0006542864 -0.0041044136
0001f0 3e 49 91 3b 30 d4 b6 3b f7 17 7b 3b ea 50 ee 3b
       0.00443378 0.005579494 0.0038313845 0.0072728293
000200 fe 5d af bb a5 9f 81 3b 04 3c 5a 3b 9e 0c 04 bc
       -0.005351781 0.0039557987 0.0033299932 -0.008059649
000210 3f 77 f0 ba 26 83 c8 3b 51 d9 cc bb d1 5b 4c bb
       -0.0018346085 0.0061191497 -0.006251492 -0.0031182657
000220 e8 75 7d 3a 1b 37 16 bc 20 12 7c bb a0 0f e5 3b
       0.00096687535 -0.009168412 -0.0038462952 0.006990388
000230 d0 0f 99 36 3a d1 67 bb 97 7b 05 bc fc 45 1d bb
       4.561596e-06 -0.0035372511 -0.008147142 -0.0023998013
000240 23 bc 5d 3b 95 32 65 b9 a4 15 84 3a d8 31 ab b9
       0.0033834062 -0.00021857985 0.001007725 -0.00032652798
000250 62 e3 ba ba 25 7f de ba 58 ac e3 3b 3b d6 30 3b
       -0.0014258439 -0.0016975148 0.006948035 0.002698316
000260 30 bc 9b bb 3f 35 81 bb 23 f6 6f 3b c8 f8 9f 3b
       -0.0047526583 -0.003943115 0.0036615215 0.004881952
000270 b6 4d 07 3c cf 1a a4 ba 3f 33 83 3b 34 10 1f 3c
       0.008258274 -0.0012520197 0.0040039117 0.009708453
000280 29 1a 1b bb 70 70 85 3b f8 f8 84 bb ec 61 09 bb
       -0.0023666716 0.0040722415 -0.0040579997 -0.0020962907
000290 cb 42 0b bb 96 a7 0f 3c f2 88 af 3a eb 05 c9 bb
       -0.0021249529 0.008767983 0.0013392253 -0.0061347387
0002a0 ff 11 4b 3b 6d 34 0e ba 7f b4 21 3b 5f bf 04 39
       0.0030986068 -0.0005424682 0.0024674234 0.00012659792
0002b0 8d 1a 85 3a ef ce 57 3a a8 2c bb bb 40 6e d1 3b
       0.0010155007 0.00082324346 -0.0057121105 0.0063913167
0002c0 26 bc 30 3b a1 a9 02 bc 31 15 04 bc 23 c2 cd bb
       0.0026967614 -0.007975013 -0.008061693 -0.0062792464
0002d0 85 2b 71 ba 17 4c 2d 3b 4d fb a9 ba 59 10 8d 3a
       -0.00091999053 0.0026443058 -0.001296857 0.0010762318
0002e0 ba 13 de bb b7 a8 d6 3b 74 72 d3 3b b4 35 7b bc
       -0.006777254 0.006550874 0.006452853 -0.015332628
0002f0 bf 2a 8e 3a a3 bc a4 3b 2a b6 7a ba 6b c6 f8 bb
       0.001084648 0.00502737 -0.0009563888 -0.0075920126
000300 a6 3b f6 bb b4 7e b8 bb 27 4a d9 ba 08 90 85 3b
       -0.007514435 -0.0056303386 -0.0016577885 0.0040760078
000310 c7 64 61 bb b7 77 f4 b9 6c 45 1d bb ea 41 d8 3a
       -0.0034392343 -0.000466285 -0.0023997677 0.0016499136
000320 31 aa d3 ba b4 fa 8c bb d8 22 b8 3a 14 cf cd 3b
       -0.0016148743 -0.004302347 0.001404847 0.006280789
000330 e3 b2 f3 bb 0d c3 9e 3b 82 dc 34 bb 8f 6c 1f bb
       -0.0074370964 0.004845029 -0.0027597253 -0.002432618
000340 6b be ad 3b f4 36 da 3a 74 d4 cc 3b bf 97 7c 3b
       0.0053022406 0.0016648457 0.0062509123 0.0038542596
000350 d1 50 01 3c 7f 5d 22 ba 06 e3 95 ba 45 a7 b7 ba
       0.007892803 -0.00061937416 -0.0011435456 -0.0014011642
000360 ac 51 19 bb f8 20 f2 3a 24 6d d6 bb c2 f9 df 3a
       -0.0023394627 0.001847296 -0.0065437723 0.0017087983
000370 38 26 44 ba e0 6a dc b9 55 6d b9 bb f0 4d 97 3b
       -0.00074825017 -0.00042041298 -0.0056587853 0.004617445
000380 4c fa 8b bb ce ce 69 3b ce 59 6d ba e8 f5 39 bb
       -0.004271781 0.0035676244 -0.00090542145 -0.0028375331
000390 98 be f6 bb b9 52 96 3a 3b e1 8c 3b 4b 81 d4 3b
       -0.0075300448 0.0011468745 0.0042993105 0.0064851395
0003a0 fe 78 0d 3c 42 f6 45 b9 59 37 5c b7 91 98 bc 3b
       0.008634804 -0.00018879122 -1.31259085e-05 0.005755492
0003b0 e4 de 7d 3b 2d 42 65 bb 03 cc b5 3b ca 52 0c 3a
       0.003873759 -0.003498207 0.0055480017 0.00053529127
0003c0 4c 24 a4 bb c3 ea 79 ba 4b 23 21 bb a3 11 bb 3b
       -0.0050092097 -0.00095335784 -0.0024587687 0.0057088896
0003d0 ae 4a 0f ba 50 4e 9e bb f1 ad 4b 3a f8 cd e1 bb
       -0.0005466145 -0.004831113 0.0007769755 -0.0068910085
0003e0 b0 98 0f bc 72 7f a0 3c 26 cc ef b9 42 5f 01 3a
       -0.008764431 0.01959202 -0.00045737735 0.0004935154
0003f0 58 e6 de bb d7 9f 93 3a 97 0b 83 3b 23 7e 09 bb
       -0.0068023615 0.0011262846 0.0039991844 -0.0020979724

net.1.linear.bias f4 [256]
000000 91 f8 2c bc a1 8d 1b bc 1e a5 fa bc 8e af d2 3c
       -0.01055731 -0.009494216 -0.030596312 0.025718477
000010 59 7e c6 bc 24 b5 3a 3c 64 ee 7f bd bf 6a 58 3b
       -0.02423017 0.011395726 -0.062483206 0.003302261
000020 da ae fd bc 32 5a 07 bd f0 2c 4f bd 6b 8c 38 bd
       -0.030967165 -0.033045 -0.050579965 -0.045055788
000030 26 e6 70 3d 0e 81 6e bc f9 c5 36 3d 5d 46 f0 bb
       0.058813237 -0.014557136 0.044622395 -0.0073326067
000040 e5 09 44 bd 8e 0c 4f 3d 5b 80 95 3b ed 95 34 bc
       -0.047861 0.050549082 0.0045624203 -0.011022073
000050 e3 4e 07 3b f4 aa 29 3d b0 da 40 bd fb 2b da bc
       0.0020646385 0.0414228 -0.047083557 -0.0266323
000060 37 83 3e bd 39 e0 4f bd 50 be 43 3d 7f 84 25 bd
       -0.046511855 -0.050750945 0.047788918 -0.04040956
000070 20 d1 4f 3d 5d c4 00 bd 9f 91 82 b8 88 55 76 bc
       0.050736547 -0.031437267 -6.226007e-05 -0.015035041
000080 fb cc 21 bd f5 f9 25 3d ac 27 49 bd 23 66 85 bc
       -0.039502125 0.04052158 -0.0491101 -0.016284054
000090 1d 96 17 bd 32 a2 28 3d 39 6e 07 bd 6c fe 33 3d
       -0.037008394 0.041170307 -0.0330641 0.043943807
0000a0 c3 07 5c 3d 81 36 56 3c 8e 05 3d 3c d9 cf 04 3d
       0.05371834 0.013074518 0.011536969 0.03242478
0000b0 b9 6f 31 3d 37 29 08 bd 1f c7 23 3d ed 09 0d bd
       0.043319438 -0.03324243 0.03998482 -0.034433294
0000c0 7f dc 2e 3d ab c6 af 3c 52 0f 88 3a 7b 8f 6e 3d
       0.04269075 0.021457037 0.0010380542 0.058242302
0000d0 1b 65 43 3d 76 06 3e bd 0d 16 64 3d 58 ef 3a bd
       0.047703844 -0.04639288 0.05568509 -0.045638412
0000e0 da da cc 3c 9c 7c 66 bd 72 d2 3f bc e7 1a 6a 3d
       0.0250067 -0.05627118 -0.011707889 0.057154562
0000f0 0a dc 4c bd b3 3e a0 3c a4 b8 51 bd af 87 b6 bc
       -0.050014533 0.019561147 -0.051201478 -0.022281496
000100 4a f9 10 3d d0 c6 82 bd ba 51 be 3c 89 24 bd bc
       0.03539399 -0.06385577 0.02323233 -0.02308871
000110 85 5b e3 bb bf 77 6e 3c ca 09 2b 3d 5d fa 08 3d
       -0.0069384 0.014554917 0.041757382 0.03344189
000120 f9 ad 13 bd 55 e3 4c bb 37 8f 71 bd 23 19 0f 3d
       -0.036054585 -0.003126343 -0.05897447 0.03493608
000130 96 24 e0 bc 6b 5f 0f 3d b6 d8 11 3c d0 a3 43 bb
       -0.027361196 0.035003107 0.008901766 -0.0029852279
000140 d2 ec af bc 17 81 b5 3c a4 d1 39 bd 79 ba 72 3d
       -0.02147523 0.022156281 -0.045365945 0.059259865
000150 39 dc 2c bc 78 8c c0 3b 06 37 3e bd 2c 72 d7 3c
       -0.010550552 0.00587612 -0.046439193 0.026299559
000160 a5 52 b8 bc bb 16 5f bd 2f 98 29 bd b2 c3 6c 3d
       -0.022500345 -0.054465037 -0.0414049 0.057803817
000170 cc b3 68 3d fb eb 59 3d d1 45 5d bd 9f be 23 bc
       0.056812093 0.053203564 -0.05402166 -0.009994178
000180 0e f2 54 bc 49 42 10 bd 32 62 03 bb 88 a3 39 3c
       -0.012997163 -0.035219464 -0.0020047543 0.011330493
000190 26 ec 48 bd 39 d4 f0 3c 8f a4 9e bb 9a 43 12 bd
       -0.049053334 0.02939807 -0.0048413943 -0.035709
0001a0 6a c2 8d bb 7e 59 06 3d 40 62 40 3c 9a 9e 64 3d
       -0.0043261545 0.03280019 0.011742175 0.055815317
0001b0 a7 8b cc 3c 24 0c 31 bd 9f 6f 8b 3c b7 e8 e9 3c
       0.024968935 -0.04322447 0.017020999 0.02855335
0001c0 88 2c 24 3d 52 53 33 bd 7c 8e 58 bd a8 d9 5d bd
       0.04008153 -0.043780632 -0.05287026 -0.05416265
0001d0 a2 00 15 3c 60 b1 15 bd a4 8d 17 bd 62 b6 71 3d
       0.009094389 -0.03654611 -0.037000313 0.059011824
0001e0 fd 39 69 bd 54 de 2a bd cb c6 94 bd 30 5f 64 3d
       -0.056940068 -0.041715935 -0.07264479 0.05575484
0001f0 9f 48 4e 3d 46 e0 12 3d 27 7f 15 bd 1f 18 62 bc
       0.050362226 0.035858415 -0.036498215 -0.013799696
000200 5c 1e ed bc 16 b8 c6 bc 49 31 ae 3c f6 24 2b 3d
       -0.02894514 -0.0242577 0.021263735 0.041783296
000210 8e b9 19 3d a4 50 08 bd 93 e5 0e 3d 6a e8 46 3d
       0.037530474 -0.03328003 0.034886908 0.04856149
000220 87 bf 92 bc 48 b5 60 3c d6 da 48 3d f4 5c 30 3d
       -0.017913593 0.013715096 0.049036823 0.043057397
000230 7c 4b 21 bd 41 78 2f 3d bd 9e bd 3c 75 d1 27 bd
       -0.039378628 0.042839292 0.023146981 -0.04097124
000240 14 69 d6 3c 9b 04 54 3d d7 21 3e 3c 04 82 3e bc
       0.026173152 0.051762205 0.011604748 -0.011627678
000250 02 e6 3f bd 49 f7 a8 bb 98 a2 a1 3c a2 ed 58 3d
       -0.046850212 -0.005156432 0.019730851 0.052961
000260 d9 a1 e8 3c 3b 1f 26 bd 35 2b 3a 3d a7 41 cc 3c
       0.028397487 -0.040557127 0.04545136 0.02493365
000270 08 d6 fc ba da c8 36 bd 81 ad 45 3d 14 d6 42 bd
       -0.001928986 -0.04462514 0.04826117 -0.047567442
000280 d0 b8 53 bc 91 27 2f 3d 55 e2 f6 bc 02 00 40 bd
       -0.012922481 0.042762343 -0.03013722 -0.046875007
000290 11 cf 56 bc 80 cd 4a 3d 34 29 1a bc 32 83 47 3b
       -0.013110892 0.049512386 -0.009409238 0.0030443189
0002a0 f8 11 1a 3d 9c 22 a0 3c 83 07 31 bd aa 30 b5 bc
       0.037614793 0.019547753 -0.043220054 -0.022117931
0002b0 5b b6 23 3c 63 0b 2c bd 71 74 65 bc cc b6 0c bc
       0.009992207 -0.042003047 -0.014004813 -0.008588504
0002c0 ab 36 f3 bc 6c 04 0f 3d 95 26 f6 3c 1c 8b 40 bd
       -0.029689154 0.034916326 0.030047694 -0.047007665
0002d0 f3 0c 87 3d 2a 53 69 bd bb f3 55 bd ad 20 7e bd
       0.06594267 -0.056964077 -0.052234393 -0.06204288
0002e0 8b 3f f4 bc 29 49 c2 bb d1 94 4e bd 4f 12 4e bd
       -0.029815456 -0.0059291315 -0.05043489 -0.05031043
0002f0 7e 41 5b bc 99 a0 71 bd 41 11 75 bc e4 48 66 bc
       -0.013382314 -0.05899105 -0.014957727 -0.014055464
000300 81 82 c5 3c ee ae ee bc fb 96 84 bd 6b 2e 23 3c
       0.02411008 -0.029136147 -0.0647411 0.009959797
000310 16 80 43 bd 8e 9e 7c bc 00 47 65 bd c7 be 27 bd
       -0.047729574 -0.015418662 -0.055975914 -0.040953424
000320 53 5f b3 3b e8 f0 50 bd 40 f9 74 bd c2 ee 46 bc
       0.00547401 -0.051010996 -0.059808016 -0.012141885
000330 99 a9 63 bd 9f 2e 4a 3d 29 a3 e8 bb ea 7c 14 bc
       -0.055581663 0.049360868 -0.0070995283 -0.009062985
000340 ae 30 18 bd 9b 53 6e bd ce 78 4f bd ae 4f 69 3d
       -0.0371558 -0.0581852 -0.050652318 0.056960754
000350 c7 50 e9 3c d9 a4 63 bd 06 9d 60 bd b1 5d 8a bc
       0.0284809 -0.055577133 -0.05483725 -0.016890379
000360 fd d9 68 bd 41 61 0b 3c 9c 8c 58 bd 71 0f 5a bd
       -0.056848515 0.008507074 -0.05286847 -0.053237382
000370 49 bc 37 3d d7 60 86 bd 31 cb dc bc d3 46 2f bd
       0.044857297 -0.065614395 -0.026952358 -0.042792153
000380 a5 61 3d 3d 28 f9 82 3d 40 0e d3 3c 5d 13 34 bd
       0.0462357 0.06395179 0.02576363 -0.04396378
000390 fe 7f 94 3c 03 ac 2d 3b 31 5c b3 bc 7f 35 77 bc
       0.018127438 0.0026500232 -0.021894546 -0.015088438
0003a0 48 6e 4d 3c 58 32 6a bd 05 35 04 bd 3d 0d 50 bd
       0.0125385 -0.057176918 -0.032277126 -0.050793875
0003b0 e5 d1 57 3c 1b 22 68 bd 28 dd f5 3a 9d b1 17 3d
       0.013172601 -0.05667315 0.0018757926 0.03703462
0003c0 7f 92 a2 ba b3 6f 1a bd 55 cc 72 bd 08 79 7c bd
       -0.0012403278 -0.03770418 -0.059276897 -0.061638862
0003d0 af d9 3a 3d 9d 24 04 bc 19 f6 24 3d c0 c2 e0 bc
       0.045617756 -0.00806537 0.04027376 -0.027436614
0003e0 40 59 09 3c c3 83 46 3d b3 b6 ba 3c f8 96 7c 3d
       0.008383095 0.0484655 0.022792196 0.061667413
0003f0 a6 c2 74 3d de b7 0f 3d c0 a6 59 bc 5a 63 15 bd
       0.059755944 0.03508746 -0.013284385 -0.036471702

net.2.linear.weight f4 [256, 256]
000000 91 b4 0a 3b df a8 40 bc 8d cc da bb cc 3f 49 bb
       0.0021164755 -0.011759012 -0.0066772164 -0.0030708192
000010 52 e4 de 3a 9f 62 a2 b7 ee 31 ed 3b 88 9e 0d bb
       0.0017005301 -1.9357829e-05 0.007238618 -0.0021609385
000020 cc fc d7 3b 04 79 9c ba ca 90 35 3c 4f 27 3d ba
       0.006591415 -0.0011937921 0.011081884 -0.0007215635
000030 5c 37 23 3b 03 95 1b bb f9 d9 10 3c 40 98 43 ba
       0.0024904823 -0.002373994 0.008841031 -0.00074613467
000040 e6 57 51 bb 95 7e 1a 3c a8 02 ba bb 43 ea 91 bb
       -0.003194326 0.009429594 -0.005676586 -0.004452975
000050 77 8c d0 ba d5 ae dd ba 23 5f ba ba de 90 31 ba
       -0.0015911002 -0.0016913066 -0.0014219027 -0.0006773601
000060 2e 05 9d 3b 58 bf 4e bb 7a 4d 02 3b 56 eb 5d 3b
       0.004791877 -0.0031547155 0.0019882605 0.0033862195
000070 93 48 9c 3b cd 51 35 3b ec f2 3e 3b 5c ab c7 3b
       0.0047693937 0.0027667165 0.0029136492 0.0060934257
000080 55 e4 65 bb 56 5d 1f 3b 85 7d 9d 3b 4d 92 8a bb
       -0.0035078723 0.0024317107 0.004806223 -0.004228866
000090 80 37 f0 3b 19 e2 25 bc 9c 97 81 3b a1 f8 cf 3b
       0.007330835 -0.010124707 0.003954841 0.0063467775
0000a0 e7 f0 38 3b 5c aa 0a 3c c1 06 c3 39 23 53 7c ba
       0.002821976 0.008463468 0.0003719833 -0.00096254254
0000b0 6e 43 cf 3a 3f 57 e0 39 26 87 08 3c 47 54 76 b8
       0.0015812942 0.00042789613 0.008333003 -5.872946e-05
0000c0 3a 10 58 bb c6 2f 09 bc d7 f9 50 3b 47 13 4a 3c
       -0.0032968656 -0.0083732065 0.0031887197 0.012333698
0000d0 9a 99 4d bb 1d 28 8c 3b c0 3f 35 3b 3c 63 f3 bb
       -0.0031372071 0.004277243 0.0027656406 -0.007427601
0000e0 03 22 d0 3b 62 8b 1f 3b 26 9b 28 bc 0e 7c af bb
       0.0063517108 0.0024344553 -0.0102908965 -0.0053553646
0000f0 83 d4 e3 b8 ae 96 9b 3c ad 1f 1e bb 1d 33 f0 3b
       -0.00010863787 0.018992748 -0.0024127767 0.007330312
000100 a2 4c 72 3b 28 fb 23 3a e6 62 bd 3b b8 e8 38 3a
       0.0036971946 0.0006255382 0.005779612 0.0007053721
000110 7c 34 c1 3b dd a2 9f 3a d2 44 61 3b 65 c9 04 3a
       0.005896149 0.0012179274 0.0034373295 0.00050654105
000120 04 95 c7 3a 7a fd ed b9 82 c4 37 3c 3c 5c f7 bb
       0.0015226905 -0.00045393017 0.011216285 -0.007548837
000130 f5 e0 38 3b 0b da 10 3a 5f 57 02 3b ce 08 a4 b9
       0.0028210257 0.0005525655 0.0019888503 -0.00031287078
000140 0b 9c ae 39 6e 87 ab bb e6 97 d5 39 f2 6f 65 bc
       0.00033304127 -0.0052346503 0.000407397 -0.014003741
000150 06 30 16 bb ec 6f 2d 3a 4f 2e 2a 3a cd a3 48 3b
       -0.0022916808 0.0006616104 0.0006491886 0.003061521
000160 99 c7 86 3b f1 16 6a 3b 23 4b 8d 3a 70 b5 dc 39
       0.0041131494 0.003571924 0.0010779839 0.0004209685
000170 91 a7 3c ba ba c0 e4 b9 a1 3c e6 3b 89 83 58 39
       -0.00071966 -0.0004363114 0.0070262705 0.00020648366
000180 d9 95 1a 3a 9e 66 b6 ba 65 4d ad bb 9f ce cb 39
       0.0005896963 -0.001391608 -0.005288767 0.00038873122
000190 6e 7b 90 3b b8 98 36 bb 83 00 92 3b ee 5b cb 39
       0.004409245 -0.0027862024 0.0044556274 0.0003878767
0001a0 be b1 1c bb b0 ab cb 38 90 43 09 39 c0 31 2e 3c
       -0.0023909654 9.7117736e-05 0.00013090507 0.0106319785
0001b0 d6 df 04 3b bd dd 4e bb 25 c0 ad 3b d6 d2 8b 3b
       0.0020275018 -0.0031565272 0.0053024464 0.004267077
0001c0 fb 2c 82 ba ec 53 99 3b 6c dc 7d 3b e2 20 f0 3a
       -0.0009931618 0.0046791937 0.0038736118 0.0018320347
0001d0 4d f5 27 3b 29 48 cf bb 4f 05 bd 3b c7 82 1a ba
       0.0025628388 -0.006325741 0.005768455 -0.0005894121
0001e0 16 29 1c 3b 9d be ec bb 3f b4 41 3b 0e df eb bb
       0.00238282 -0.0072248713 0.0029556898 -0.007198221
0001f0 74 68 ec 3a a1 30 19 3b a8 ad 2d bb 84 0e 86 bb
       0.00180365 0.0023374932 -0.0026501212 -0.004091086
000200 37 ea 27 3b 96 2e f8 3a 55 f6 83 bb d4 3b 89 bb
       0.002562178 0.0018934782 -0.004027168 -0.0041880403
000210 aa 6d 23 bb 8d 66 c1 3b 3e 26 77 3b 17 bb 7c 3b
       -0.002493719 0.0059021176 0.0037712003 0.0038563663
000220 15 e6 e6 bb 0f 2c 3e bc dc 8a 3b 3b c6 1f 1d 3c
       -0.007046471 -0.011607184 0.0028616702 0.009590095
000230 dc ec ac 3b 79 2a c1 bb 18 ad 15 bb 49 e6 32 3b
       0.0052772593 -0.0058949557 -0.0022838768 0.0027297905
000240 ee 1f dd 3a d5 88 0e bb 9d cd 42 bb 2b 12 a0 3b
       0.0016870478 -0.0021749039 -0.0029724606 0.0048849783
000250 58 37 5e 3b b0 1b 11 3c d0 2b a6 bb c9 26 db ba
       0.00339075 0.008856699 -0.005071141 -0.0016719933
000260 e8 6c 2e bb ce 2c 92 3b f1 e6 9d 3a e4 ca 4a 3b
       -0.0026615206 0.0044609075 0.0012046975 0.0030943686
000270 06 3d b6 3b 19 e5 ed 3b 81 dc 81 b8 42 ef fb 3a
       0.005561474 0.0072599766 -6.1922714e-05 0.0019221085
000280 aa aa c0 3a e8 dc 1f bb 56 97 d0 b9 26 e2 6e 3a
       0.0014699299 -0.0024393145 -0.00039785606 0.0009112678
000290 a2 d9 93 3b 76 de 2e 3a 54 70 ee 3b 5d 0f 44 bb
       0.004512028 0.00066707225 0.007276574 -0.0029916384
0002a0 a7 37 73 bc 71 81 22 bc 5c 4a 52 bb fa 7e d0 3b
       -0.0148448115 -0.009918557 -0.0032087779 0.006362793
0002b0 47 92 86 3b ca 60 3b bc bc d0 50 3b f6 14 79 3b
       0.004106793 -0.0114366505 0.0031862697 0.0038006878
0002c0 62 62 03 bb 0f ae 4d bb 5f 39 97 bb df 2f 2e 3b
       -0.0020047654 -0.0031384265 -0.0046149935 0.0026578826
0002d0 be 93 5b bb 31 e6 de ba f4 70 6c 3b fd 1f 4d bb
       -0.003350481 -0.0017005858 0.0036078067 -0.0031299584
0002e0 07 c2 6f 3a da 52 24 bb 50 0c 09 bb 79 a2 b7 3b
       0.0009146039 -0.0025073797 -0.002091188 0.005604085
0002f0 40 98 22 bb f8 e6 8c 3b b6 47 1d b9 3a 28 ac 3a
       -0.0024809986 0.0042999946 -0.00014999401 0.0013134547
000300 4d f3 81 3b 56 54 12 bb d7 90 1b 3a a2 5c 96 bb
       0.0039657713 -0.00223281 0.00059343636 -0.0045886794
000310 39 ab d6 3b c8 4c c6 bb 76 e9 88 b9 01 ec 3c 3b
       0.006551173 -0.0060516335 -0.00026113883 0.0028827193
000320 e7 a3 2c 3b eb df 01 39 38 db 50 3a e2 66 40 3c
       0.002634281 0.00012385815 0.00079672365 0.011743279
000330 28 c4 0a 3a d9 81 3a bb 2c 59 98 3a 7d e5 c1 3b
       0.0005293512 -0.0028458743 0.0011623255 0.0059172497
000340 21 3b 81 ba f6 1f f2 3a b0 22 ef 3b 1a 54 8a 3b
       -0.0009859541 0.001847266 0.0072978362 0.0042214515
000350 f1 f4 37 b9 71 f5 b4 3b 12 70 14 3c a7 97 95 3b
       -0.00017543488 0.005522423 0.009059923 0.0045651975
000360 9e 7e 26 3b 0d de 0e 3a 4c 2f 9f bb f8 57 74 bb
       0.002540506 0.0005449958 -0.004857933 -0.0037283879
000370 6a 55 0c bc 90 49 e8 3a 2d 42 83 3a 7d 70 4a 3b
       -0.008565286 0.0017722119 0.0010014229 0.0030889802
000380 86 ad a9 bb 7d 0b 07 37 97 eb 81 bb 84 f2 7a 3a
       -0.0051781563 8.049302e-06 -0.003964852 0.0009572881
000390 ad 4e 24 3b 9a 31 95 3b fc ed 02 3c 7b 26 47 bc
       0.0025071308 0.004553032 0.00799131 -0.012155171
0003a0 4f d7 a5 bb da 36 ad 3b c6 93 45 3b c6 22 ab bb
       -0.005061067 0.00528608 0.0030147894 -0.005222651
0003b0 d1 31 ab ba 4a 16 c6 ba 95 10 78 b9 1b 97 5d 39
       -0.0013061111 -0.0015112844 -0.000236573 0.00021132494
0003c0 24 40 4e 3b 4b ee dc bb 6c bd cf 3a a0 3d 18 3b
       0.0031471336 -0.006742274 0.0015849299 0.002323009
0003d0 56 41 ac bb 39 51 f7 3a 11 53 7c ba 81 c0 b4 3b
       -0.005256812 0.0018868811 -0.0009625415 0.0055161123
0003e0 6f b7 b1 b9 5c ce 4d ba 64 88 70 3b 5d 39 01 3c
       -0.0003389674 -0.00078508793 0.003670239 0.007887212
0003f0 48 58 3c 3c 7d 41 92 39 69 ef 03 3c a2 7b b7 3a
       0.011495657 0.00027896083 0.008052685 0.0013998637

net.2.linear.bias f4 [256]
000000 59 48 01 3d a2 bc 15 bc 8b 17 b8 3c b7 16 30 3c
       0.031563137 -0.009139212 0.022472164 0.010747603
000010 dc 71 ae bd 46 6b 82 3d 4f d3 82 3c 7f 1e 10 3d
       -0.08517811 0.06368117 0.0159699 0.035185333
000020 43 f8 4c 3d 62 77 48 bd 07 20 9b 3d 36 c6 f0 bc
       0.05004145 -0.048941977 0.07574468 -0.02939139
000030 32 0b 61 3d 53 45 de 3c bc 1e 8a 3c 7b 73 e1 bc
       0.054942317 0.027132666 0.016860358 -0.027520886
000040 39 9e 88 bc 33 4e 88 bd 0d 8e 93 3c da 0b ff 3b
       -0.016677009 -0.0665554 0.018012071 0.0077833952
000050 c5 bb 8c bd 1c 16 a8 bc 0a bc 7c 3d de 9d ef bc
       -0.06871752 -0.020518355 0.061702766 -0.029250082
000060 25 70 3b bd 83 21 b7 3c 1f 34 2a 3d 2e 66 81 bd
       -0.045761246 0.022354847 0.041553613 -0.06318317
000070 90 18 0d bc d1 0c 6e bd 5c ac d2 3c 49 1c 69 3d
       -0.008611813 -0.05811769 0.025716953 0.05691174
000080 ad fe 4b bc 7f a0 5d bd fd 11 57 3d 80 bd db bc
       -0.012450856 -0.05410814 0.05250739 -0.02682376
000090 82 c0 35 3d 74 96 3a bb 6f e3 8b bd 47 31 4f 3d
       0.044373043 -0.0028471025 -0.06830489 0.050584104
0000a0 29 61 7a bd 51 3a 98 bb 34 eb 0e bd 23 d8 a4 bc
       -0.061127815 -0.0046456237 -0.034892276 -0.020122593
0000b0 77 69 d4 bc 2d 7c 3a 3c f7 61 0a 3d f1 ed 4c bd
       -0.025929196 0.011382145 0.033784833 -0.050031606
0000c0 80 c0 93 bc 4f 37 bb 3c f4 a7 6e 3d d8 fd 82 bc
       -0.018036127 0.022853522 0.05826564 -0.015990183
0000d0 a8 52 02 bc 7b 3c e0 3c 43 22 5e 3d 26 44 d7 3c
       -0.007954277 0.02737259 0.054231893 0.026277613
0000e0 4b 32 10 bd 7b 70 09 bd 9d 6e 28 3b d3 9f e7 bc
       -0.035204213 -0.033554535 0.0025700696 -0.028274452
0000f0 9c 80 c8 3c d9 08 a8 bc f3 55 56 3d 13 aa 6b bc
       0.024475388 -0.020512031 0.05232806 -0.014383811
000100 db 81 d0 bc cf d1 b2 3c 2c 4a e7 bc dc 4a 7b 3d
       -0.025452545 0.02182856 -0.02823361 0.06135069
000110 df 05 17 3d a6 2f 6c 3d 8e 45 6d bd a6 a1 13 3d
       0.036870833 0.05766263 -0.05792766 0.03604283
000120 01 97 b5 bc 93 89 63 3d 69 03 9d 3b 9d 44 b1 bd
       -0.02216673 0.055551123 0.0047916663 -0.08655665
000130 42 b7 1b 3d 5e 3a 5a 3c 1b 53 55 3d ba 55 1c bd
       0.038016565 0.01331958 0.05208121 -0.038167693
000140 dd c8 47 bc d8 ea 57 3d 85 96 e2 3b f0 d7 4d bc
       -0.012193886 0.0527142 0.006914916 -0.012563691
000150 ff f6 23 3d 08 1e 92 bb 0d 34 1b 3d d3 50 88 bc
       0.040030476 -0.0044591464 0.037891436 -0.016640102
000160 1e 6f 60 bc b0 72 cc bc be 05 bc 3a d1 0a a4 3b
       -0.013698367 -0.024957031 0.0014344973 0.005006172
000170 78 3a 6b bb 88 14 0a 3d a9 07 4f bc 1c 6c 7b bd
       -0.0035893004 0.033710986 -0.012636104 -0.061382398
000180 72 19 4d bd 89 8e 7c bc af 64 37 bd 58 78 2b bc
       -0.050073095 -0.015414842 -0.044773754 -0.010465704
000190 70 e3 f0 3c fa 46 31 3d fb 10 13 bd b1 58 e6 bc
       0.029405326 0.04328058 -0.035904866 -0.028118463
0001a0 ee 93 09 3d 14 15 c4 3c 2a 11 27 bd 13 c5 b0 bb
       0.033588342 0.023935832 -0.040787853 -0.005394587
0001b0 b0 dc af 3c d7 0d 87 bd 72 ba 7c bd 8a ab 9d 3b
       0.021467537 -0.065944366 -0.061701246 0.004811709
0001c0 1c a8 bc 3c 16 2b de bb a0 83 c4 bc 9e 75 2d bd
       0.02302938 -0.0067800386 -0.023988545 -0.042348497
0001d0 11 22 58 bd b5 09 5e 3d 49 15 11 3d de eb 51 3d
       -0.052766863 0.054208476 0.03542069 0.05125033
0001e0 6d 92 65 bd ca b1 18 bd 8a e1 91 bd 8f 6f 84 3d
       -0.056047846 -0.037278928 -0.07123096 0.064665906
0001f0 8e 2b a1 3c bb fb 1a 3d cf 9e 1c 3d ed 14 49 bd
       0.019674089 0.037837725 0.03823739 -0.049092222
000200 79 49 53 bd ef 04 93 3b d7 7a ae bc 49 30 3c bd
       -0.05158374 0.004486672 -0.021298809 -0.045944486
000210 bb e8 95 bc 79 51 19 bd 0a f7 8d 3b ae 40 b2 3c
       -0.018299451 -0.037431214 0.004332428 0.021759357
000220 9a 6e da bc 10 3d 24 3d 95 7b 67 bd 12 69 d8 ba
       -0.026664067 0.040097296 -0.05651434 -0.0016510806
000230 e9 6a 40 3c 48 4f 5f 3d 4b 0b a6 bd 3d 6a 33 3c
       0.011744239 0.054518968 -0.08107623 0.010950622
000240 fb e0 0b 3d 8c 9e 59 3d 61 e3 54 3c 76 d8 89 3d
       0.034150105 0.053129718 0.0129936645 0.0673074
000250 14 61 80 bb a5 ae 73 bc f7 3e 01 bc 72 94 d0 3c
       -0.0039178226 -0.0148731815 -0.007888547 0.02546141
000260 26 07 43 bd af 65 69 bd 5c 4b 33 bd c5 c6 e4 3c
       -0.04761424 -0.05698174 -0.04377304 0.027926812
000270 f9 ae 73 bd a7 35 86 3d 76 d1 33 bc af f2 c0 3c
       -0.05949304 0.06553202 -0.010975232 0.02355322
000280 f5 ca b0 bd bd 1a 05 bd c1 fc fd 3c 8b 5f 49 bb
       -0.08632461 -0.032496203 0.031004312 -0.0030727114
000290 46 3a 9d 3c 4a 10 57 bd 1c 9d b2 bc b4 3a 8b bc
       0.019192826 -0.05250577 -0.021803431 -0.016995765
0002a0 9c 03 45 bd d9 1c 3b bc f8 b3 3f 3d da c6 89 3b
       -0.048099145 -0.011420452 0.04680249 0.004204613
0002b0 f9 5c fb 3c 47 4b e2 3b f3 b0 b5 3c 55 41 2f 3c
       0.030683981 0.0069059464 0.022179103 0.010696729
0002c0 1f 04 89 bd 90 44 18 bc 3f 85 91 3d 66 e9 91 3c
       -0.06690239 -0.00929369 0.07105493 0.017811488
0002d0 dd 6b 07 3d 46 98 40 3d 38 03 a5 3b 53 88 f1 3c
       0.03306185 0.04702022 0.005035784 0.02948395
0002e0 31 04 19 bd 88 c5 e7 3c da 1e 59 bc 4b 58 e9 3c
       -0.037357513 0.028292432 -0.0132519845 0.028484484
0002f0 15 84 be 3c 69 12 0c 3d b7 bb 41 3d fa 8e 19 3c
       0.023256341 0.034197245 0.04729816 0.009372467
000300 51 50 89 bc 63 18 72 bd 86 64 b0 3c ec 42 54 3d
       -0.01676193 -0.05910529 0.021532308 0.051821634
000310 81 2e 93 3d cc 95 07 bd 2e 65 71 bb 31 d3 54 3d
       0.07186604 -0.03310184 -0.003683399 0.05195922
000320 20 26 05 3d 07 bf a1 3c bc be 25 3d ca 64 90 bc
       0.032507062 0.01974441 0.0404651 -0.017626185
000330 41 b6 a2 3c d0 fb 55 bc 1f ee e0 bc c1 38 8a 3d
       0.019862296 -0.013060525 -0.027457295 0.06749106
000340 ee 78 61 bd cf 0b 5a bd f8 c6 00 3d e3 22 77 bd
       -0.05504697 -0.053233918 0.03143975 -0.060336005
000350 d2 7f 83 bd fd ca 7a 3d 5c fe 1a 3a 03 bb 70 3d
       -0.06420864 0.06122874 0.0005912536 0.0587721
000360 98 53 2d 3d a8 72 ad bc a7 ea 8e 3d be 7a 98 3d
       0.04231605 -0.021172836 0.0697835 0.07445286
000370 9f 5c 08 bc 13 cf 41 3d 6f 83 bb 3c fc 3c 06 3d
       -0.008322864 0.047316622 0.02288982 0.032773003
000380 29 20 63 3d 53 06 b1 bc 5f 49 b6 3c 40 8b a1 bd
       0.055450592 -0.021609461 0.022251783 -0.07887888
000390 b7 84 18 bd a3 7d 7a 3d cc e1 2f 3d b0 6f 39 bd
       -0.03723594 0.061154973 0.042939946 -0.04527253
0003a0 97 9b a9 3d 25 eb 21 3d 8a b4 44 3d a4 1f 29 3d
       0.082816295 0.039530892 0.048023738 0.04128994
0003b0 f2 b0 0b bd 60 d1 d4 3c cc 68 3e bd b3 7b 32 3d
       -0.034104295 0.025978744 -0.04648666 0.043575
0003c0 c3 d1 61 bd 86 90 98 3d 45 4d 19 bc b0 dc b3 3d
       -0.055131685 0.07449441 -0.009356801 0.08782327
0003d0 65 f6 79 3d 02 4f 86 bc 09 f1 ac 3c 03 e9 c7 3c
       0.061025996 -0.016395096 0.021111028 0.0244031
0003e0 31 4b 79 bc 4d 42 b4 bd cb 1a 07 bd cb ed 06 bd
       -0.015215681 -0.08801708 -0.032984536 -0.03294162
0003f0 f3 98 e2 3c e9 b5 9c 3d 11 aa 9c bc 1a 59 d9 bb
       0.027660822 0.07651884 -0.019124063 -0.006632936
