weights/siren_90785_l2.pth (torch, 204250 bytes, 9 tensors)

net.0.linear.weight f4 [128, 2]
000000 62 4a bc 3e a2 20 20 3e 4b d2 be 3c 9d 47 52 3e
       0.367755 0.15637448 0.023293635 0.20535131
000010 98 e1 5d 3c cd 1b e0 3e a2 91 0e be 4f da 91 be
       0.013542555 0.4377121 -0.13922742 -0.2848687
000020 4e d9 88 be 92 04 ef be 21 e0 d9 3d 9c c7 14 bb
       -0.2672829 -0.46683174 0.10638452 -0.0022701984
000030 3b 0f cc be 08 8a 87 bd a9 c4 8e 3e 39 48 80 3e
       -0.3985537 -0.06618124 0.27884415 0.25055102
000040 5d ea fd bd 38 41 d1 be d3 bf 45 3e 87 d9 bf 3e
       -0.12398217 -0.4087007 0.19311456 0.37470648
000050 11 21 c3 3d d2 cc a9 be 1d 6e e7 3e 32 61 01 bf
       0.09527791 -0.33164078 0.45201197 -0.50538933
000060 19 1d e9 be 3b 77 85 3e 00 18 b4 be 4d 46 8f bd
       -0.45530012 0.26067528 -0.3517456 -0.06995831
000070 20 50 b0 3e 8b 02 5c be ad 28 37 3e d2 31 00 bf
       0.3443613 -0.21485345 0.1788661 -0.5007602
000080 0a 8d 2f be ed 46 58 3d e8 da cd 3e 8b 3e 75 3e
       -0.17143646 0.052802015 0.40206075 0.2394964
000090 92 67 08 3e 77 3f 7a be 2d fd 09 3e 1e 26 90 3e
       0.13320759 -0.24438272 0.13475485 0.2815408
0000a0 18 0e a5 3e 2d 65 93 be 8b 2e bb 3e 38 aa d2 3e
       0.32237315 -0.28788128 0.36558947 0.41145492
0000b0 94 55 e4 be 97 c3 97 3e aa 5b 4a 3e e6 ea 85 3e
       -0.4459654 0.2964141 0.1976153 0.26155776
0000c0 0d 7c 3b 3e b6 63 72 3e 8d 6d 04 3e 6b ab d3 be
       0.1830904 0.23670849 0.12932415 -0.4134172
0000d0 ee 79 f7 3e 30 6e 30 3e c3 db cc be c3 42 5f bd
       0.48335212 0.17229533 -0.40011415 -0.05450703
0000e0 84 5e 9c be 3d 95 97 3e 2e f7 6a bd 93 93 43 be
       -0.3054086 0.29606047 -0.057364635 -0.19099264
0000f0 3c 1d d4 3d 5c 83 77 3e e4 b9 c2 3e 6c cc 4b be
       0.103571385 0.24171203 0.38032448 -0.199022
000100 5a 4b 00 bf 6c 9e 23 3c 28 c2 c2 3e 8e 57 9d be
       -0.5011498 0.009986501 0.38038754 -0.3073086
000110 98 0b 38 3e f3 77 39 be c6 4a d8 bd 2c 58 3b be
       0.17973173 -0.18112163 -0.10561137 -0.18295354
000120 33 2c 88 3e ae 30 ee bd c5 04 98 3e 5a ea 6e 3b
       0.2659622 -0.11630379 0.2969114 0.0036455602
000130 05 39 a4 be ef 82 fb 3e 10 68 b3 3d b6 cb 17 be
       -0.32074752 0.49123332 0.08760083 -0.14823803
000140 c4 0d c5 3e 68 d6 2d 3e a2 1f 94 3e 8f d3 ac 3e
       0.38487065 0.1697632 0.28930384 0.33755156
000150 0a a7 89 bd 7d c3 dd 3e 14 25 6e 3e 0d 46 99 3d
       -0.06721313 0.43313208 0.23256332 0.07484064
000160 0a 4b c3 be 87 20 d5 3d 74 cc a3 bc 8a ec 04 bd
       -0.38143188 0.10406595 -0.019994952 -0.032452144
000170 1e 42 7b 3d 17 9d d5 39 74 5f d1 be 49 cd 06 be
       0.06134235 0.00040743567 -0.40893137 -0.13164248
000180 d0 1e 97 bd a2 32 51 be be d0 b2 3e 1b 8a e8 bd
       -0.07378924 -0.20429471 0.34924883 -0.113544665
000190 ba 86 b1 be 46 43 e2 3e 6c f5 db bd fa ba 80 3e
       -0.346731 0.4419195 -0.1074017 0.25142652
0001a0 3c 4d 37 be 45 70 19 be 96 9b 9b 3e 67 c2 8e be
       -0.17900556 -0.14984234 0.3039214 -0.27882692
0001b0 a0 c1 55 be b8 74 c1 3e 05 20 db be 68 7c ae be
       -0.20874643 0.37784362 -0.42797866 -0.3407929
0001c0 d2 4f c2 3e 42 d4 ff 3e e3 20 ca be e9 75 0b 3e
       0.37951523 0.49966627 -0.39478216 0.13619198
0001d0 e9 43 49 be 3c 96 35 3c fd 35 37 3e 7d 5e b3 3e
       -0.19654812 0.011083182 0.17891689 0.35033026
0001e0 eb 24 a6 3e ec c5 2f be 68 c9 40 be cc ed 70 be
       0.3245004 -0.17165345 -0.1882683 -0.23528212
0001f0 85 be 2d 3e 4b b4 63 3e 5a f9 f3 3d 57 3d 05 3e
       0.16967209 0.22236745 0.119127944 0.1301168
000200 8c c1 f0 be 63 02 90 3e 56 23 fd bd dd 33 58 3e
       -0.47022665 0.2812682 -0.123602554 0.21113534
000210 9d 10 71 be 2d cd 9a 3d 8e 86 e8 be 7e ae de 3e
       -0.23541494 0.075586654 -0.45415157 0.43492502
000220 df 16 7f be 93 70 83 3e 13 6b 68 bd 7a b6 d7 bd
       -0.24911068 0.25671825 -0.05674274 -0.105328515
000230 c8 31 c8 be 42 7b b5 bd b7 c7 2b be b5 b3 d1 be
       -0.3910048 -0.088614 -0.16775404 -0.40957418
000240 07 dc a5 be 10 9e dc 3d 7a 78 96 be eb 63 b9 bd
       -0.3239443 0.107723355 -0.2938879 -0.09052261
000250 82 ed df 3e 46 84 fa be 0f 39 c8 3e 1f 06 13 be
       0.43735892 -0.48929042 0.39106032 -0.14357804
000260 47 b3 af be 25 fd ce bd 2a 35 e2 3e 3e ed 86 3d
       -0.34316465 -0.10106877 0.44181186 0.06588219
000270 45 eb 83 bd 03 68 bd 3e 55 2f 93 3e 02 6d bd bd
       -0.064413585 0.36993417 0.2874705 -0.09249307
000280 c0 4e b6 3e 1d b1 7d 3d 76 a2 6c 3e db a0 f9 3d
       0.35606956 0.061936487 0.23108849 0.12188884
000290 2f d1 56 be a7 b2 d7 be 0b aa ab 3e 4d f5 ed be
       -0.20978235 -0.42128488 0.3352817 -0.46476212
0002a0 81 2b ea 3e fc f2 d0 3e f5 1b 94 3e 8d 4d cb bb
       0.45736316 0.40810382 0.2892758 -0.006204313
0002b0 72 fe ba be 06 f1 f2 be fd 20 36 be 4c d2 b8 3d
       -0.3652225 -0.4744951 -0.17786022 0.09024486
0002c0 54 3e 0d be e5 47 51 bd ee 1d af be 93 b3 e1 3d
       -0.13793308 -0.051093955 -0.34202522 0.11020579
0002d0 8b 34 97 be 27 e3 b7 3e b2 3f 4e 3e c1 25 a4 be
       -0.29532275 0.3591549 0.20141485 -0.32060054
0002e0 b5 08 2e 3e 70 80 ff 3e e9 9f d1 be 9d 57 07 be
       0.16995509 0.49902678 -0.40942314 -0.13217016
0002f0 07 83 a4 be e3 af b1 3e db 70 13 be b7 8e bc be
       -0.32131216 0.34704503 -0.1439852 -0.36827633
000300 a9 68 1f 3e 96 96 9f bd 24 0c 43 be b1 99 97 be
       0.15567268 -0.07792394 -0.190476 -0.29609445
000310 c0 4c 21 3e b6 a6 f4 3e 20 53 1d 3e aa 0b db 3d
       0.15751934 0.4778344 0.15363741 0.10695584
000320 d3 27 dd be b6 57 3f 3e 44 6f cd 3e 38 30 d5 3e
       -0.43194446 0.18685803 0.4012395 0.4163835
000330 e0 c4 f2 3d d1 3a d7 be 95 03 f0 be 00 22 70 be
       0.11853957 -0.4203706 -0.46877733 -0.2345047
000340 29 f8 90 3e 13 27 e5 3d 17 f7 98 3e fb 10 c3 be
       0.2831433 0.111890934 0.29876015 -0.38098893
000350 f4 42 a9 be f0 0e c3 3e f5 bf af be 8c 54 ce be
       -0.33058894 0.38097334 -0.3432614 -0.4029888
000360 46 8f 82 be 57 42 fb be 44 b4 7d bd c3 56 bf be
       -0.25499934 -0.4907405 -0.061939493 -0.3737088
000370 5d 2e db be 59 6b 3e be ce 96 b4 be 25 3e f9 be
       -0.4280881 -0.18595637 -0.35271305 -0.48680225
000380 f7 b5 a4 bd 80 a7 a8 bd 0d 47 ac bc 08 4a 8d be
       -0.080425195 -0.08235073 -0.021029973 -0.27595544
000390 d8 24 fe 3e c4 be 80 be 07 cb 3d bd 47 26 af bd
       0.49637485 -0.25145543 -0.0463362 -0.08552223
0003a0 2e 01 b4 be af ba be bd 7e ea 01 3e 86 45 f8 be
       -0.3515715 -0.09312951 0.12687108 -0.48490542
0003b0 39 4e 8e 3e 60 21 ff 3e 14 a7 73 3d 0f 2d 1a 3e
       0.27794054 0.4983015 0.05948551 0.15056251
0003c0 74 db e3 3e 63 73 df be fc 14 9b be f5 55 76 be
       0.44503367 -0.4364272 -0.30289447 -0.24056228
0003d0 64 d3 8a be cb 30 dd be 1e 69 89 3c 40 1b b1 3e
       -0.27114403 -0.4320129 0.016773757 0.34591103
0003e0 a7 97 f1 be c7 4d c8 bc 85 54 3f be 41 97 c9 be
       -0.47186014 -0.02445115 -0.18684585 -0.3937321
0003f0 bc d9 80 be 15 24 c5 be f6 23 51 bd 67 a7 a1 be
       -0.25166118 -0.3850409 -0.051059686 -0.3157303

net.0.linear.bias f4 [128]
000000 21 1e 88 be bd 14 f4 be 96 f7 92 be 85 b2 a0 be
       -0.26585487 -0.47672072 -0.28704518 -0.313862
000010 14 67 a2 3d 6e d5 f5 be 3e 69 07 bf 93 2b 8b 3e
       0.07929817 -0.48014396 -0.5289496 0.27181682
000020 99 ae e1 bc 54 9b 19 3f 10 e1 36 be b8 99 b4 3d
       -0.027549075 0.60002637 -0.17859292 0.08818382
000030 ee e7 2e 3f ba 8f 4f bd 2f c1 2f 3f f4 86 2d bf
       0.68322647 -0.050674178 0.6865415 -0.6778405
000040 39 ca c6 be ed b8 f0 be a5 93 9d 3e 33 3a e5 3e
       -0.3882616 -0.47016087 0.30776706 0.44770965
000050 82 54 14 be 73 50 15 3f 6f f1 e2 bc f3 4c 2a 3f
       -0.14485362 0.5832588 -0.027703015 0.66523665
000060 b2 73 20 3e 7a 56 ea be 32 f0 b3 bd 2c da cf 3d
       0.15669134 -0.457691 -0.08786048 0.10149035
000070 43 ba 19 3f 41 b0 ca bd b5 8e 0f 3f 0f fd 16 bf
       0.6004984 -0.09896899 0.5607713 -0.58979887
000080 36 07 2b 3f 14 13 b9 be 62 38 06 3f 4f 63 c2 3e
       0.6680788 -0.36147368 0.52429783 0.3796639
000090 18 6e 99 3e 93 aa 00 bf 29 db bd be 1e 34 c6 3e
       0.29966807 -0.50260276 -0.37081268 0.38711637
0000a0 68 41 d9 3e e0 8f d9 be 92 8b 14 3f 50 b5 83 3e
       0.42432714 -0.4249258 0.5802547 0.25724268
0000b0 68 80 b1 3e ec d3 37 be e0 12 f8 bc 2b e5 5d be
       0.3466828 -0.17951936 -0.030282438 -0.21669452
0000c0 57 45 e2 3c 66 6e 02 bf 76 b2 12 bf 0f 84 20 3f
       0.027620954 -0.50949705 -0.5730356 0.62701505
0000d0 10 65 e3 bd 04 dc bd be 0a cb df 3d 85 5f 41 be
       -0.111032605 -0.3708192 0.109273985 -0.18884094
0000e0 1d 40 15 bf 9a eb cb 3e 22 3c ed be 58 e0 9d 3e
       -0.58300954 0.39828187 -0.4633494 0.30835223
0000f0 c5 2f c4 3e a3 c4 21 be 4f f6 27 3f 93 7e c5 3e
       0.38317695 -0.15797667 0.6561021 0.3857313
000100 be 9f c7 bd 1d 79 0b bf 9e e3 0e bf 4a 66 8a 3d
       -0.09747265 -0.5448168 -0.55816066 0.06757791
000110 0a 12 53 3e 01 e3 91 be 68 42 ea 3e 30 b3 26 3f
       0.2061235 -0.28493503 0.4575379 0.6511717
000120 44 ad e1 3e ef d9 84 3c 7d f9 84 3e ef 9a c6 be
       0.44077504 0.0162172 0.25971594 -0.3879008
000130 50 0b dd 3e 8f 53 a4 bd 46 0b 04 3e b2 90 31 bf
       0.43172693 -0.0802375 0.12894925 -0.6936141
000140 79 ae 31 bf 4e 02 07 bf b8 ca 59 be 9f 19 96 bd
       -0.6940685 -0.5273789 -0.21268737 -0.073291056
000150 69 2d 14 bf aa 0d 8b bd be a2 6c 3d 86 7d 21 bf
       -0.5788179 -0.067897156 0.05777239 -0.6308216
000160 53 79 ca be d3 86 2b bf 72 50 21 3e 8f 67 99 3e
       -0.39545688 -0.670026 0.15753344 0.2996182
000170 24 c5 5e 3e 78 bc 10 bf ec 44 91 3e f6 66 84 be
       0.2175489 -0.5653758 0.28372896 -0.25859803
000180 a7 a9 ae be 4b ab 7c be 2d b3 e4 be 24 55 a2 3c
       -0.3411381 -0.24674718 -0.4466795 0.019815989
000190 fa 35 7e be 06 d4 9f be 3a 58 03 3f cf 37 a6 be
       -0.24825278 -0.3121645 0.513065 -0.32464454
0001a0 56 e2 a7 bd a2 7c 09 3f 4e 48 9e be 4b 57 bc be
       -0.08197467 0.537058 -0.3091454 -0.3678535
0001b0 43 2c ed 3e 51 02 92 be f2 0d 2f bf 8b 71 e0 be
       0.46322832 -0.28517392 -0.68380654 -0.43836626
0001c0 97 40 72 3e 96 cf 58 bd 23 e8 b8 be 97 0b 25 3f
       0.23657452 -0.052932344 -0.36114606 0.6447081
0001d0 7e eb 1f 3f e3 59 e0 be d2 e2 d8 bd c0 a0 b0 bd
       0.6246871 -0.43818578 -0.105901375 -0.08624411
0001e0 38 56 b4 be 55 a6 33 3f 0f 6b d5 3e 21 01 a9 be
       -0.3522203 0.7017568 0.41683242 -0.33008674
0001f0 df 78 3c 3e 05 25 6f be 58 3d 26 3f 6d 9a dc bc
       0.18405484 -0.23353966 0.64937353 -0.026929105

net.1.linear.weight f4 [128, 128]
000000 fc db 57 3c 9a 15 bc 3a 97 31 23 3c ca 38 9b bb
       0.013175007 0.00143497 0.009960554 -0.0047369944
000010 ac ff 0d bc 64 fa b6 3b 84 8f 40 bc bf 43 33 bc
       -0.008666914 0.005584048 -0.011752967 -0.010941445
000020 30 02 bb 3b 01 1c 0d bc 6c 36 59 3b 49 4a 1a bc
       0.005707048 -0.008612634 0.003314401 -0.009417125
000030 9e 1e 44 3b 3a 84 2c 3c 21 77 cd bb e0 18 42 3a
       0.0029925476 0.010529572 -0.006270305 0.00074042194
000040 d7 a3 8f 3a f2 ac 40 3a 4e f1 54 3a 50 34 c1 bb
       0.0010958862 0.00073499896 0.00081231154 -0.0058961287
000050 20 cb ba bb 89 01 33 bb ec 7c 32 3c 1e a4 b7 bb
       -0.005700484 -0.0027314147 0.0108940415 -0.005604281
000060 16 3f 75 3a 1e a1 4c 3b 94 f6 5a 38 d1 38 20 bb
       0.0009355409 0.0031223963 5.2204894e-05 -0.0024447928
000070 b1 13 f5 ba 6b c5 c8 ba d0 b9 47 bb 24 fc a3 bb
       -0.0018697885 -0.0015317624 -0.0030475743 -0.0050044227
000080 2f 27 fc 3b 18 d4 28 bb f3 64 0b bb 2e 3f f8 b9
       0.0076951007 -0.0025761183 -0.0021269887 -0.0004734932
000090 a6 a3 62 bc f4 f3 9b ba cb 37 5d 3a 0e f8 e4 bb
       -0.013832962 -0.0011898265 0.0008438795 -0.0069875782
0000a0 57 a8 41 bc fc b2 4a bb c1 e6 c7 ba 4f fa ae 3a
       -0.0118199205 -0.0030929437 -0.0015251265 0.0013349744
0000b0 c4 ba a2 ba 43 dd ec 3b aa 5e 85 3b f6 bb 2f 3c
       -0.001241528 0.007228525 0.0040701227 0.010725966
0000c0 28 19 b7 bb 8e 12 6f ba 89 6d 09 bb f2 77 2e bb
       -0.0055877157 -0.00091198913 -0.002096983 -0.0026621786
0000d0 51 45 cc 3b 01 51 27 bb b1 27 ba bb 50 e5 e2 bb
       0.006233849 -0.002553046 -0.005681001 -0.006924309
0000e0 fd bc 75 3c 79 5b 20 3c c1 fc e1 3b 47 d4 26 3b
       0.014998672 0.009787434 0.0068965857 0.0025456117
0000f0 19 83 08 bb ff 6d a4 3b c2 47 36 3a d8 c2 2d 3b
       -0.0020830093 0.0050179954 0.0006953442 0.002651384
000100 3d 6f 8d 39 55 31 18 3c 0b c7 fb 3a cb 16 c3 bb
       0.00026976495 0.009289105 0.00192091 -0.005953645
000110 07 be ac 3b 08 6d a4 3b 25 2c 99 3a 76 70 1b bb
       0.0052716765 0.0050178804 0.001168613 -0.0023718155
000120 c0 1e 3d bc b6 12 92 3b fa 3a 6a ba 5f d6 00 bc
       -0.011542976 0.004457797 -0.000893518 -0.00786361
000130 5c 19 b0 3b cc d4 0b ba fc d2 04 bc 29 a4 83 bb
       0.005374117 -0.00053341384 -0.008106943 -0.004017372
000140 b7 bb 2a 3c 39 58 90 3a 74 06 4e 38 97 de a8 bb
       0.010420731 0.001101262 4.9120237e-05 -0.005153488
000150 b4 07 ee 3b 5f 52 a7 3b 17 f1 5b 3c b5 c6 fb bb
       0.007264102 0.005106255 0.0134241795 -0.0076836
000160 a5 a3 8e bb 82 bc 0f 3c a6 a7 9f bb 94 e8 cc 3b
       -0.004353004 0.008772971 -0.00487228 0.0062533114
000170 bb 0a 20 3c 85 c8 d0 bb 1f 85 c3 3b f2 90 cc bb
       0.009768183 -0.00637156 0.005966797 -0.0062428648
000180 c7 59 32 3b 0d 05 99 3b aa 06 56 3b 91 16 19 bb
       0.0027214156 0.0046697916 0.003265778 -0.0023359398
000190 b0 02 07 3c 6e 1b 1e bc 74 46 98 3b e9 9e 03 3c
       0.008240387 -0.009650094 0.0046470705 0.008033493
0001a0 d7 6e 78 3b 28 85 1a bc a5 7d 95 3c 27 f5 b2 bb
       0.0037907863 -0.009431161 0.018248389 -0.0054613533
0001b0 e8 3e f0 bb 00 c3 75 bb 5a 8c f4 bb 53 f4 26 ba
       -0.0073317178 -0.0037500262 -0.0074630203 -0.00063688046
0001c0 5a 55 10 bc 51 c7 1b 3c 4e d3 1a bb 95 9c 9b bb
       -0.008809412 0.00950797 -0.0023624483 -0.0047488906
0001d0 0f 1b 1c bb 4b 67 33 ba f2 16 04 3b cd 58 1f bb
       -0.002381984 -0.00068437 0.0020155278 -0.0024314404
0001e0 6b d9 0e bc 22 ad 6f bc 11 27 8a 3a 0c f5 d0 bb
       -0.008718829 -0.01462868 0.0010540207 -0.006376868
0001f0 ce 1d 4e ba 73 73 e4 bb f4 08 40 3a 28 b7 a7 3b
       -0.00078627176 -0.0069717704 0.0007325553 0.0051182695
000200 44 8d 33 bb 00 9c e4 3b 51 4d ab bb f8 63 75 bb
       -0.0027397433 0.0069766045 -0.0052277227 -0.003744362
000210 76 8d 0f bb 97 cf 90 3b 48 6b d9 3b c5 b7 ac 3a
       -0.0021904386 0.004419278 0.0066351034 0.0013177326
000220 be cb e3 3a 14 9c 1c bb 9e 62 87 bb b3 46 88 3a
       0.0017379445 -0.002389674 -0.004131629 0.0010397047
000230 84 3a b6 bb 7a 19 88 bb 46 35 71 ba b6 50 2a bb
       -0.005561175 -0.0041534277 -0.0009201359 -0.002598805
000240 f6 98 ba b9 52 4b ef bb 1d 65 27 3b af 6e 92 bb
       -0.0003559065 -0.00730268 0.0025542446 -0.004468761
000250 53 92 78 bb 86 d3 9e 3b 89 88 fc bb 28 43 88 3b
       -0.0037929013 0.004846993 -0.007706706 0.0041583963
000260 2b ab 83 3b cb e7 de bb 1c f0 80 bb 98 d0 90 3b
       0.0040182075 -0.006802534 -0.0039348733 0.0044193976
000270 ff dd 9f 3b 65 00 38 ba 5c 21 36 ba 05 21 6e bb
       0.004878759 -0.0007019102 -0.000694772 -0.00363356
000280 e7 69 90 bb 31 c7 13 3c 4a 60 1c 3c 84 ba 9a ba
       -0.004407156 0.009019659 0.0095444415 -0.0011804854
000290 95 63 6e bc 45 59 b1 ba 28 f7 06 3c f9 67 1e bc
       -0.014550109 -0.0013530633 0.008237638 -0.009668344
0002a0 ed f5 73 3b d3 8e 0a bb a8 90 ff ba 52 96 ba 3b
       0.003722544 -0.0021142259 -0.0019498067 0.005694189
0002b0 81 67 0c 3b c0 4d 63 3a 8c b0 1f bb 72 5e e7 ba
       0.0021423998 0.00086709484 -0.0024366705 -0.0017652048
0002c0 c7 97 0e 3b 8c 64 62 ba e0 7a 4c bb 93 2f e8 3b
       0.0021757947 -0.00086361985 -0.003120117 0.0070857494
0002d0 e4 20 f9 b9 1e 71 a1 39 6f e9 95 bb 31 a5 ad ba
       -0.00047517486 0.00030792592 -0.0045749466 -0.0013248083
0002e0 5c b2 4a 3b f3 8c bf 3a 22 89 33 bb fa 09 e5 3b
       0.0030929064 0.001461415 -0.002739497 0.0069897147
0002f0 32 61 1e 3c 02 a6 6b 3b 89 68 e7 bb 0c 28 04 bc
       0.009666728 0.0035957103 -0.007062022 -0.008066189
000300 3a 46 d8 b8 9c 5e 00 3b 8b 1a 6f ba 62 a2 57 bb
       -0.00010312763 0.0019587642 -0.00091210817 -0.0032903184
000310 9f b6 49 ba 0e b1 a0 bb a1 2e 1b 3b bb 79 0c 3c
       -0.0007694754 -0.004903919 0.0023678916 0.008573945
000320 1e c7 8b bb e2 b2 00 39 78 b6 26 bc 4f 00 d4 bb
       -0.00426568 0.0001227367 -0.01017534 -0.0064697633
000330 69 8f ee bb bf fc a8 3b a4 2e 91 bb 20 87 8f bb
       -0.0072802794 0.005157083 -0.004430609 -0.004380122
000340 b6 7c 14 bb 69 e0 c2 ba 59 52 34 b9 ff f6 38 bb
       -0.0022657341 -0.0014867905 -0.00017196815 -0.0028223393
000350 27 0c 45 bc a7 56 03 3c 69 e5 97 3b 5e 87 88 3a
       -0.012026823 0.008016265 0.004635502 0.0010416319
000360 5c 79 bb 38 4f 52 d5 3b 32 6e cf 3a 61 a7 49 3a
       8.93946e-05 0.006510056 0.0015825687 0.0007692483
000370 1b 0c b9 3b 99 73 16 bb 46 60 36 bc 11 be 80 bb
       0.005647195 -0.0022957085 -0.011131352 -0.0039289077
000380 84 a6 d8 b9 a0 bd ad 3b 74 1f 21 bc c9 b4 da 3a
       -0.00041322794 0.005302146 -0.009834159 0.0016685958
000390 2d 44 a6 3a e9 1b bd bb 81 8d d1 ba dd 48 10 3c
       0.0012685113 -0.0057711494 -0.0015987606 0.008806434
0003a0 d2 86 c5 bb 6e 6d a5 bb 30 49 d9 3a bb dd d4 b8
       -0.0060280347 -0.0050484454 0.0016577598 -0.00010150248
0003b0 d5 28 91 bb 34 a4 14 3b ac c4 84 bb e5 cd a7 3b
       -0.0044299164 0.002268088 -0.0040517654 0.00512098
0003c0 33 d8 87 3b d9 67 01 bc 24 95 c8 3b ff 02 de bb
       0.004145646 -0.007898294 0.0061212946 -0.0067752595
0003d0 05 0e b9 bb 01 95 e2 bb 80 3a d5 bb 74 92 3f 3b
       -0.005647423 -0.0069147353 -0.006507218 0.002923158
0003e0 a0 a4 2f 3b 08 0e a8 b9 22 d0 10 bc 34 c5 c2 bb
       0.0026801005 -0.0003205391 -0.008838685 -0.0059439186
0003f0 09 a2 10 bc 9e 68 b7 bb 72 2a 9f bb d0 9e d4 bb
       -0.008827695 -0.005597188 -0.004857355 -0.0064886585

net.1.linear.bias f4 [128]
000000 16 47 7e bd 5b 9a b2 3d 9f df 85 bc 9a b3 9f 3c
       -0.06207951 0.08720847 -0.016341982 0.01949482
000010 b6 93 94 3d 2f 45 ac bd 90 4b 04 3d 23 75 a7 3d
       0.07254736 -0.08411633 0.032298625 0.08176639
000020 d7 5a c3 3c ad cf 95 3b c4 01 23 b9 18 10 87 bd
       0.023847027 0.004571876 -0.00015545549 -0.065948665
000030 9b f3 85 3d 3d 4e 2c 3d 96 55 a9 3d c7 8d 67 3d
       0.06540605 0.0420668 0.08268277 0.056531694
000040 ac f5 18 3b 65 cf 85 3d 85 09 cb bc a1 63 ac 3d
       0.0023339791 0.06533698 -0.024784813 0.0841744
000050 eb 16 b2 bd 2b db 4a bd 39 34 cf b9 fb 1e 32 bb
       -0.086957775 -0.04952542 -0.00039521026 -0.002717911
000060 4e 07 00 bd 7c 0f 21 3d 12 73 83 3b 28 88 8f bb
       -0.031256966 0.039321408 0.00401152 -0.0043802448
000070 cd 56 65 3d 16 96 90 3d 32 dc 58 bc f4 e1 31 3d
       0.055990983 0.070598766 -0.013236092 0.043428376
000080 ff f5 09 3c 9c ba 9d 3d 57 02 9f bd 6c 9d 04 3d
       0.008420466 0.077016085 -0.07764118 0.03237669
000090 c3 b9 71 bc 4f 9e 7f bc 0c 76 ee bc fd db 50 bd
       -0.014753762 -0.015601709 -0.029109024 -0.050991047
0000a0 c9 ff c8 bb f5 3b 7e bd 3a c3 f0 bb 0b d6 b9 3d
       -0.0061340076 -0.0620689 -0.0073474916 0.090740286
0000b0 40 8e 06 3d 07 9a 2a 3d bb be 25 3d 43 56 07 3d
       0.032850504 0.0416508 0.040465098 0.03304125
0000c0 50 0e 65 bc c7 b4 7e 3d a4 6d 7d bc 27 58 ee 3c
       -0.013980463 0.06218412 -0.015468035 0.029094769
0000d0 0b 6c 99 bd 18 a4 03 bd 11 16 62 3d 16 61 4b bd
       -0.07491311 -0.032138914 0.055196825 -0.049653135
0000e0 f9 5c 97 3d 85 2e 53 3d 22 00 15 bd 7f 11 b7 b9
       0.0739078 0.051558036 -0.03637708 -0.00034917516
0000f0 92 a6 ad bc b6 15 ab bd 43 32 4e bd 40 bb 08 3d
       -0.021197591 -0.083537504 -0.050340902 0.0333817
000100 fc 1b 1a bd 70 ff 1a bd a3 92 3f 3d 0d 1d 28 3d
       -0.037624344 -0.03784126 0.046770703 0.04104333
000110 17 f4 50 bd e2 ad 9b 3d 26 1f b3 bd 36 e9 56 bc
       -0.051014032 0.07601525 -0.087461755 -0.013117125
000120 c1 e2 3a ba 86 a3 52 3c 02 2b 1e 3d 63 36 0d 3d
       -0.0007129126 0.01285637 0.038615234 0.034475695
000130 dc 19 71 3d 2c a7 6d 3d 4f 73 9e 3c 19 f4 95 3d
       0.058862552 0.058020756 0.019342093 0.073219486
000140 a5 2e 6e bd 74 dd 5a 3d 0e c1 4e bd ab b6 3e bc
       -0.058149952 0.05343385 -0.05047708 -0.011640231
000150 ec 2a 9b bd 06 c4 a1 3d bd 61 04 3d 41 5c 18 39
       -0.07576546 0.07898717 0.032319773 0.00014530217
000160 bc 88 82 3d bd 72 04 bd ba 0a 5d bd 62 05 5b 3d
       0.06373736 -0.032335985 -0.053965308 0.05347193
000170 07 11 b2 3d 85 7e 94 bd a1 29 66 3c 5b 99 1d 3d
       0.08694654 -0.07250694 0.014048011 0.03847633
000180 6d 71 5c bd 8c 25 a0 3c 92 0f 82 3d 5d cf dd 3c
       -0.05381911 0.019549154 0.06350626 0.027076418
000190 b4 c1 6d bd e3 d1 35 3d ce 6b 9b 3d 68 2d 9d bd
       -0.058046058 0.044389617 0.075889215 -0.07674676
0001a0 aa bc 10 bd e6 c7 96 bd af 09 81 bd 86 dc 54 3d
       -0.035336174 -0.07362346 -0.06300675 0.05196812
0001b0 55 dd a3 bd df 55 a5 3d 36 75 ba 3c 56 40 84 3d
       -0.080012 0.08073019 0.022760969 0.064575836
0001c0 96 fb 9c 3b 08 ee bd bc 4f 92 15 3c f0 31 a4 bd
       0.0047907336 -0.023184791 0.009129121 -0.08017337
0001d0 ee bd 69 3c 19 c5 b9 bd 0d ea 33 3d 85 65 62 3d
       0.014266474 -0.090707965 0.04392438 0.055272598
0001e0 62 16 87 bd 03 60 1a bd 2e 4e ea bc f4 ac a3 3d
       -0.06596066 -0.03768922 -0.028601732 0.079919726
0001f0 be eb a1 bc a3 1f 8c bb f0 df 9e 3d 8d a0 9a 3d
       -0.019765731 -0.0042762323 0.077575564 0.07550154

net.2.linear.weight f4 [128, 128]
000000 1d df ec 3a 92 79 e7 3b 03 68 d2 3a d2 48 7c bc
       0.0018071864 0.007064053 0.0016052726 -0.015398221
000010 d2 0f 46 bc 97 11 65 3c 13 64 92 bc 4f e7 4d 3b
       -0.012088733 0.0139812445 -0.017869985 0.0031418388
000020 9b 51 44 3c c9 ab 5a 3c b4 e1 2b 3b 4b e2 07 bb
       0.011982347 0.013346621 0.002622706 -0.0020734246
000030 db 1e 0d ba d4 ec 78 bc 19 3b 4d bb d3 72 8c bc
       -0.0005383321 -0.015193183 -0.0031315743 -0.017144596
000040 06 82 db 3a 79 6b 2c bc d3 de 41 bb 4f 79 ed ba
       0.0016747124 -0.01052367 -0.0029582276 -0.0018117818
000050 c5 c6 8f bb 03 85 53 ba cb c8 b8 bb 83 64 56 bc
       -0.004387709 -0.00080688315 -0.0056391708 -0.013085487
000060 34 50 f7 bb ba 6b 2d 3c 32 61 98 bb b0 4e 9f 3b
       -0.0075474028 0.010584766 -0.0046502585 0.004861675
000070 35 e2 fd bb a0 1d 1c b8 f8 0b cc 3b d3 5d 5b bc
       -0.0077479132 -3.722089e-05 0.0062270127 -0.013389069
000080 db d7 9d 39 ad 3b 0e bc d1 d8 87 bb e3 7e 82 3b
       0.00030106198 -0.00868122 -0.0041457196 0.003982411
000090 8c 92 af bc b0 93 0c 3c 04 a7 09 3c 65 69 62 3c
       -0.021432184 0.008580133 0.008401636 0.013819073
0000a0 3f ee d7 bb 49 93 0f bc 59 09 50 3a 91 0e ea bb
       -0.0065896804 -0.008763143 0.0007935963 -0.0071428497
0000b0 c3 06 05 3c d5 84 25 bc 56 c9 cd 3b 3d 34 2d 3a
       0.008119288 -0.01010247 0.0062801046 0.00066072104
0000c0 41 1c e7 39 57 5f 56 3b d0 8a 15 bc 55 c9 5c 3b
       0.00044080804 0.0032710636 -0.009127334 0.003368934
0000d0 b2 5d c8 3b dd 54 a4 3a 97 45 0c bc 6b 8e e1 bb
       0.006114685 0.0012537498 -0.008561513 -0.0068834326
0000e0 ff 07 76 bb 92 8c 9b 3b cf cb 07 bc b6 6b 13 bb
       -0.0037541387 0.004746982 -0.008288338 -0.002249462
0000f0 ba 73 90 3c 5a 3b dc 3a 9b 62 25 3c ed 92 76 bb
       0.017633308 0.0016802356 0.01009431 -0.0037624196
000100 60 5a ed 3b cf 87 ae ba 65 3f cf 3a ac 6f cd 3a
       0.0072434396 -0.0013315621 0.001581174 0.001567354
000110 e4 de 16 3c a3 61 11 3b 83 31 68 bb 04 89 39 bb
       0.009208415 0.002218344 -0.0035429902 -0.0028310427
000120 a9 ff c0 bb c6 01 52 3b 26 c1 a4 3a 26 1d 37 3c
       -0.005889852 0.0032044514 0.001256977 0.011176383
000130 78 0c 30 bc a7 f6 ff 3b b5 1f 36 bc 8d 12 e2 bb
       -0.01074516 0.0078113857 -0.011115958 -0.006899184
000140 17 5a 7f 3c 1f 0c 1b 3c 32 c4 45 bb d8 0c ee bb
       0.015585444 0.009463339 -0.0030176756 -0.0072647147
000150 ea 95 29 39 ab d4 9d 3b ec 2e ff b9 ef e9 85 bc
       0.00016172943 0.0048166118 -0.0004867235 -0.0163469
000160 07 c2 29 3b 21 48 cf bb b0 d9 4d ba 7e 31 e5 ba
       0.0025903003 -0.006325737 -0.00078525674 -0.0017486063
000170 ec ec 37 bc 6b 7f 85 3a 4b 09 8b 3c eb 34 61 3c
       -0.01122592 0.0010185068 0.016972205 0.013745527
000180 14 00 b6 ba f5 a6 ad bb e0 b7 98 3b c5 95 af 3c
       -0.0013885521 -0.005299444 0.0046605915 0.02143372
000190 1b c3 65 bb 7e 43 11 bc 98 d4 b6 ba 2f ef 1a bc
       -0.003505892 -0.008866189 -0.0013948856 -0.00945644
0001a0 e1 3f 2d bc 35 9e 26 3b 20 9a 9d 3a 41 60 34 3a
       -0.010574312 0.0025423889 0.0012024082 0.0006880798
0001b0 51 0f e1 bb bd 62 39 3c 81 f6 36 bb 89 0a 86 3b
       -0.006868281 0.011315045 -0.0027917924 0.0040906114
0001c0 06 fb 51 3c 28 4d 01 3c 89 16 37 ba d0 ea ae bb
       0.012816196 0.007891931 -0.0006984254 -0.0053380504
0001d0 85 23 37 bc 84 f1 da bb 02 2b fa 3b ef 3e 55 bc
       -0.011177902 -0.006681623 0.0076345215 -0.013015493
0001e0 15 51 eb 3a ee 92 bc b9 a7 7c cf 3a 7e ea f9 bb
       0.0017953241 -0.00035967625 0.0015829996 -0.0076268306
0001f0 c8 f2 bd bb db 04 0c 39 39 5f 20 3b aa 2d 3b bb
       -0.005796764 0.00013353249 0.002447082 -0.0028561153
000200 13 7c 8c ba 9b 96 c0 3b 97 34 db ba 19 e7 a4 3b
       -0.0010718129 0.0058773286 -0.0016724047 0.005032432
000210 7a c6 e1 bb 2d f2 b4 bb e6 16 51 3b 7a 56 9c ba
       -0.0068901153 -0.0055220337 0.0031904518 -0.0011927627
000220 e1 62 ae 3b 81 d0 c3 bb 6b 12 e0 3b 03 e1 57 3c
       0.005321846 -0.0059757833 0.006838133 0.013176206
000230 57 d7 b4 bb 18 fb 9d bb 53 09 77 bb 92 33 7a ba
       -0.0055188346 -0.0048211925 -0.0037694767 -0.0009544428
000240 55 85 73 37 5d 59 06 bb 18 64 3e 38 3b 0b 3a bb
       1.45149725e-05 -0.0020500042 4.539275e-05 -0.0028388042
000250 ca 4d e6 bb 56 b4 f1 bb 0c 2b 93 3b 5e 9e 98 bb
       -0.007028316 -0.007376234 0.0044912156 -0.0046575507
000260 9f e4 a3 bb df 3a 22 3c b1 94 34 3c 15 ea c3 3a
       -0.005001619 0.009901731 0.011021779 0.0014947081
000270 9c e1 61 3b a4 39 a3 3b c5 9b 12 3c 07 fb 67 3a
       0.003446675 0.0049812365 0.008948271 0.00088493567
000280 94 82 de 3b ef 52 83 bb 85 30 41 3a 6c 68 54 3b
       0.0067904685 -0.004007689 0.00073695957 0.0032410873
000290 20 59 06 bc af a0 cd ba 53 68 ec 3b 1e 49 bf 3b
       -0.00819996 -0.0015688146 0.007214585 0.0058375737
0002a0 a1 8c 59 3c 73 7b 04 bc 27 f4 5b bb bf 44 31 3c
       0.013278157 -0.008086073 -0.0033562274 0.010819613
0002b0 a4 ff 04 bb 73 95 2f 3c 27 97 06 3c ed dd 23 bc
       -0.0020293975 0.010716784 0.008214748 -0.010001642
0002c0 0f 18 37 3c 85 9a 13 3c 97 1a a8 3b e9 b1 95 3b
       0.01117517 0.009009008 0.005130123 0.0045683277
0002d0 3f 60 b2 bb 0c 96 15 ba 67 46 95 bb 9a 40 18 bc
       -0.0054436023 -0.00057062577 -0.0045555118 -0.009292746
0002e0 eb de 07 bc 0c 91 24 3c e0 5a b9 ba 6d d2 18 ba
       -0.008292894 0.0100443475 -0.0014141463 -0.0005829696
0002f0 f1 75 19 3b c8 e8 ee 3a 45 94 9d 3a d8 5e 8d 3b
       0.0023416246 0.0018227333 0.0012022337 0.004314285
000300 75 d9 72 3b 62 b8 30 3a 62 c4 ba 3b 16 de 3d 3b
       0.0037055884 0.00067413424 0.00569968 0.0028971485
000310 a0 6e 66 3b 64 46 ec 3b db 25 c6 b9 4e 01 17 3b
       0.0035161152 0.0072105397 -0.00037793707 0.002304155
000320 6e 4f 1c bb df 48 fe 3a 6c b5 ac 3b 91 16 cd 3a
       -0.0023851055 0.0019400379 0.0052706506 0.0015646984
000330 a5 c7 9e 3b 23 fe 35 3b 12 40 17 3b 32 63 03 bc
       0.004845577 0.0027769885 0.002307896 -0.0080192555
000340 27 0c bd 39 77 88 dc bb 63 56 b4 3a 1e 1f 15 bb
       0.00036057943 -0.006730135 0.0013758655 -0.0022754143
000350 41 7b 3d 3b 98 69 3a bb fe f3 c9 3b d8 71 c6 ba
       0.0028912576 -0.0028444286 0.0061631193 -0.0015140129
000360 15 aa 19 bc e1 38 15 bc 70 35 21 bc da 0d fb 3a
       -0.00937893 -0.009107799 -0.009839401 0.0019153908
000370 bd 91 f9 3b f7 fc 2a 3b 8f b0 40 3c 9d f4 04 3c
       0.0076162503 0.002609072 0.011760845 0.008114961
000380 46 47 c3 bb 46 76 97 ba d9 52 e6 3b 8d 16 f7 3b
       -0.005959424 -0.0011555634 0.007028919 0.00754053
000390 48 17 96 bb df 85 c2 3b 2b 1f 44 3b 12 37 9d bb
       -0.004580412 0.005936369 0.0029925804 -0.0047978247
0003a0 4a 0c 77 ba 86 5f 91 ba af 5b 0d bc da 78 33 3b
       -0.00094241335 -0.001109109 -0.008627816 0.0027385266
0003b0 c2 2d 17 ba e3 8b 0c bc a7 0d 87 3b 84 55 a0 bb
       -0.00057670113 -0.0085782735 0.0041215005 -0.0048930068
0003c0 8a bb 8a bb 50 47 1d bc 2f 5a f1 3a 58 55 15 3c
       -0.004233782 -0.009599522 0.0018413718 0.009114586
0003d0 38 5a c7 ba 48 6e 29 bb d4 fd d3 ba b8 56 9e 3b
       -0.0015209382 -0.0025853086 -0.0016173669 0.004832115
0003e0 aa eb 8e ba 53 cf 42 bc f2 08 aa bb 85 97 3f 3b
       -0.0010903974 -0.01189025 -0.0051890546 0.00292346
0003f0 24 28 aa 39 5d 68 b3 3b 3e d4 6d 39 65 ec 81 3c
       0.00032454834 0.0054750876 0.00022681148 0.015859792

net.2.linear.bias f4 [128]
000000 e2 2a 4d bd 75 83 3f 3c bb a9 7b 3c a6 95 45 3d
       -0.050089724 0.011689057 0.015360291 0.04823842
000010 7c 75 32 bd ec d6 8c bd ce f0 3f 3d 89 ac 46 3d
       -0.043569073 -0.068769306 0.04686051 0.048504386
000020 d8 4b 64 bd 1f 97 12 3d f3 07 b1 3d 9c 9c 95 3d
       -0.055736393 0.03578865 0.08644094 0.073052615
000030 c0 3c 4f bd 75 80 11 bd 20 9e 15 3d 80 2c 61 3d
       -0.050595045 -0.035522897 0.036527753 0.05497408
000040 b9 a8 92 3d a6 c6 a3 3b 72 8a 80 bd c2 a3 1e bc
       0.071610875 0.004998046 -0.06276406 -0.009682598
000050 2e 00 a9 3d 20 e8 a9 bc 8d 3a 15 3c b4 b1 13 3d
       0.082519874 -0.020740569 0.009108198 0.036058143
000060 76 9d 6d 3d 84 c0 80 bd 2d 49 b0 3d bc f8 7f 3d
       0.058011495 -0.062867194 0.08607707 0.06249307
000070 99 7b a2 bc 98 b5 10 3d 09 82 53 3d c2 bc 19 3d
       -0.019834327 0.03532943 0.051637683 0.03753353
000080 fa 0b 63 3d fe 01 f9 bb e5 70 5d bb dd b9 96 bd
       0.055431344 -0.0075991144 -0.0033789214 -0.07359669
000090 0b 72 8e 3d c1 f1 45 bc ae 5f 12 3a e1 1a 77 3d
       0.06955346 -0.012081564 0.00055837154 0.060328368
0000a0 ca e0 32 bd 5e 2e 31 3d 8a 31 82 3c 08 c8 70 bd
       -0.043671407 0.04325711 0.015892763 -0.058784515
0000b0 34 23 ad 3b 70 6f be 3d 2b 0b 62 3d 16 16 a3 bd
       0.0052837376 0.09298599 0.05518643 -0.07963197
0000c0 00 43 a1 bd b8 35 96 3d f2 9c c8 3b 26 36 1a bd
       -0.07874107 0.07334465 0.006122225 -0.037649296
0000d0 00 1a ab bd bd de 7d bc 97 e4 5b 3c 8d 0e 97 3c
       -0.083545685 -0.0154949995 0.013421199 0.018439556
0000e0 f3 0a 68 bc 99 93 ad 3d 63 21 22 3d 27 f4 a7 3c
       -0.014162767 0.08475418 0.03958262 0.020502163
0000f0 5b ad 10 bd d7 e1 24 3c f7 58 ac 3c 7e c2 47 bc
       -0.035321575 0.01006361 0.021038515 -0.012192367
000100 ac e5 5e 3d 01 38 c1 bd ea b0 4e bd cd 14 24 3d
       0.05441825 -0.0943451 -0.050461687 0.0400589
000110 96 4c 84 bd aa 17 a2 bc 77 58 a9 bd f1 71 de bc
       -0.0645992 -0.019786675 -0.082688265 -0.02715394
000120 e2 ac 84 bd 5c 56 18 3d 4b ad ab bd d4 8b a0 3d
       -0.06478287 0.037191734 -0.083826624 0.0783917
000130 ac 72 a3 ba 33 21 17 3d 22 e6 6c 3d 8b 36 9a 3d
       -0.0012470088 0.036896896 0.05783666 0.075299345
000140 22 16 fc bc 5f d0 95 bd c4 95 a9 bc 75 f0 45 bd
       -0.030772272 -0.07315134 -0.020701297 -0.04832502
000150 f0 b6 17 3d ab 74 8e 3d 97 17 f2 3c 6c 90 9f bd
       0.037039697 0.069558464 0.029552264 -0.07791218
000160 bb ab 82 bd ef ae ba bd 90 ef 98 3d 28 1e c8 3c
       -0.06380411 -0.09115397 0.07467568 0.024428442
000170 ab f1 25 3c e7 a0 fc bc 9b 74 bc 3c 6b 6f 7d 3d
       0.010128419 -0.030838443 0.02300482 0.061873835
000180 86 80 92 bc 60 01 0c bc 7c f2 74 3d 11 c9 04 3d
       -0.01788355 -0.00854525 0.059801564 0.032418314
000190 1d 26 35 bc 14 9d 8f 3d 67 58 82 bd 97 f2 a8 3d
       -0.01105645 0.07012382 -0.06364518 0.08249395
0001a0 b2 2c 97 3d 49 ac 90 bd f9 3f a6 bd 6e dd 93 3c
       0.07381572 -0.07064111 -0.081176706 0.018049922
0001b0 b3 73 85 bd 63 b1 aa 3d 3d 07 dd 3c b8 cc 86 3d
       -0.065162085 0.08334615 0.02698099 0.06582016
0001c0 47 19 b0 bd c9 73 4d bd b0 c3 9d 3c 54 ed 66 3d
       -0.08598571 -0.05015925 0.01925835 0.056378677
0001d0 5f 14 0f 3d 0d c0 b4 3d fe f4 87 bd c2 80 95 bd
       0.034931537 0.08825693 -0.066385254 -0.07299949
0001e0 97 56 2f 3d 05 b8 ac bc 92 17 d3 3b 7a df 7e 3d
       0.042807188 -0.021083841 0.006442019 0.062224843
0001f0 6e c3 1c 3c ad f0 c6 3b 8e c2 5b bd cf 50 04 3d
       0.009568078 0.0060711713 -0.05365234 0.032303628

net.3.linear.weight f4 [128, 128]
000000 c3 6e ca bc de 49 a2 bb a6 96 e2 3c a5 5a 71 bc
       -0.024711018 -0.0049526533 0.027659725 -0.014731084
000010 4d a2 b9 bc b9 0c a7 bc e7 91 f6 bb 82 35 04 bd
       -0.022660399 -0.020391809 -0.007524717 -0.03227759
000020 77 58 ee 3a d6 5f a4 3c e8 ef b5 bc ad d6 94 ba
       0.0018184324 0.02006523 -0.022209123 -0.0011355482
000030 d4 02 cd 3a 72 b9 68 3b 91 28 2a bc ff 78 9b bb
       0.0015641102 0.0035510925 -0.010385648 -0.0047446485
000040 3d 34 ef 3b d0 81 71 3b 30 72 90 3c 6e 1f 96 bc
       0.0072999285 0.0036851056 0.017632574 -0.018325534
000050 7c a7 dc bb 2c 21 91 3c 0e fd 04 bc 19 0e 71 ba
       -0.006733833 0.017716013 -0.008116974 -0.0009195521
000060 d0 ae b9 bc d8 ec e2 3c bc 4a ae bc ba a2 c6 bb
       -0.022666365 0.027700827 -0.02127587 -0.006061879
000070 56 ad 32 3c a6 48 d2 bc 42 e1 27 3b a4 9f 32 bb
       0.010905584 -0.025669407 0.0025616442 -0.0027255798
000080 be ad b0 3b 03 b8 95 3b 6a bf f1 ba d1 50 a1 bc
       0.0053918054 0.004569055 -0.0018443887 -0.019691857
000090 ca ff 95 bc 26 0c 7f b9 18 5b bb 3b bf 84 00 bc
       -0.018310446 -0.0002432322 0.0057176463 -0.007844149
0000a0 96 9a a6 bb 5f 36 cd bc 4a 04 3a bc b8 56 3d 3b
       -0.005084346 -0.02505034 -0.011353562 0.00288908
0000b0 23 11 8d bb 1e 8c 0a bd b5 d8 07 bb 4b 73 01 3d
       -0.0043050214 -0.033825032 -0.0020728533 0.031604093
0000c0 bf 5a 32 bc c8 8d 30 3c f0 81 31 bc d0 da 8b bc
       -0.010885893 0.010775991 -0.010834202 -0.017072111
0000d0 a9 fe 81 bc 61 52 4b bd 6d 56 38 3b 5d c0 1b bb
       -0.015868502 -0.04963911 0.0028127686 -0.002376578
0000e0 56 a8 a0 bc 6f 59 57 3c 07 d4 c0 bc 6d 7e a5 bb
       -0.019611519 0.013143881 -0.023538603 -0.0050504715
0000f0 09 d6 a4 bb be 7c 58 3a 21 de a7 3c 9e d8 9f bc
       -0.005030398 0.0008258334 0.020491662 -0.01951247
000100 f6 bf 3a bb b5 9a 00 bc 58 1b 1a 3d 50 2d 96 bc
       -0.0028495765 -0.007849385 0.037623733 -0.018332154
000110 13 a3 bf 3c cb 31 97 bc 5d a3 02 3d bc 65 9d 3b
       0.02339319 -0.01845636 0.031894077 0.0048033874
000120 6a e3 2f 3c d4 2d dc 3b 86 5f 97 3c bb 3b 89 3c
       0.010735372 0.0067193303 0.018478166 0.016752115
000130 23 e7 58 3c 4b 08 c4 36 8c e0 10 bd 5f 8d b2 bc
       0.013238701 5.8422206e-06 -0.035370395 -0.021795927
000140 0a 3d 3d bc ab 44 61 bc a0 22 79 3c dd 15 97 bc
       -0.011550197 -0.013749282 0.015206009 -0.018443042
000150 b2 73 f2 3b ad 7a 27 3c 8b f0 48 3b 7a be 88 bb
       0.007399046 0.010222119 0.0030660953 -0.004173097
000160 86 2a 26 3c 5b 60 d8 3c e6 ff 50 bc 51 d7 a1 3c
       0.010141974 0.026413133 -0.012756323 0.019755991
000170 ce e5 fb 3c fa 8c 5e 3a 13 4a 1c bc c9 fe ec bb
       0.030749228 0.0008489635 -0.009539145 -0.007232521
000180 fc 43 91 bc 50 a1 75 3b f0 a1 13 bd bf 14 87 3b
       -0.017732613 0.0037480183 -0.036043108 0.004122346
000190 77 40 4a 3c 4d e3 df 3c cf e7 19 bb 42 00 1a 3c
       0.012344471 0.027330065 -0.0023484116 0.0093994755
0001a0 52 37 b7 bc 8e 9b b7 bb b5 e0 2e ba 2d 32 df 3c
       -0.022365246 -0.0056032604 -0.0006671057 0.027245605
0001b0 66 40 6a 3c 04 a3 fd bc 8d 2c d1 bc 0f 3c 0d bb
       0.01429758 -0.030961521 -0.025533939 -0.002155069
0001c0 ed 95 0d 3c e8 96 c4 3c 09 9e 5c bc 09 98 3c bc
       0.008641702 0.023997739 -0.013465413 -0.011510857
0001d0 f5 7c 93 bc fb eb 27 bc f8 3f 35 3c 14 0d 8d bc
       -0.01800392 -0.010249133 0.011062615 -0.01721815
0001e0 31 08 41 3c b4 2f 32 3b 69 8d a2 3b 58 69 99 3a
       0.011781738 0.0027189078 0.004960705 0.0011704369
0001f0 21 04 d4 bb 8e 21 5a bc 16 9b 91 b9 7b 8e b7 bc
       -0.0064702188 -0.013313664 -0.00027772103 -0.022406807
000200 60 b4 8d 3c 48 db 86 bb 7c d7 16 3c 8b 73 13 bb
       0.017297924 -0.004115496 0.009206649 -0.002249929
000210 69 5f ab bb 50 2a 02 3b 89 17 27 bb 5e f8 13 3c
       -0.0052298796 0.0019861646 -0.0025496206 0.009031383
000220 51 7c 0c 3c 9f d5 0c bc 97 c0 de 3b ed 02 4b 3b
       0.008574561 -0.008595853 0.006797861 0.0030977086
000230 45 46 2d 3c 0e 93 f2 3b 03 38 12 bc d3 42 c3 bb
       0.010575836 0.007402784 -0.008924487 -0.005958894
000240 ac ec ed ba e7 e4 eb bb f0 e7 0e 3a e5 51 db 3b
       -0.0018152199 -0.007198918 0.00054514315 0.006693112
000250 eb 7a bb bb b7 98 d7 39 5d fa 8a 3b 9a f1 62 bc
       -0.00572144 0.00041121777 0.0042412714 -0.013851548
000260 9a 49 af ba a9 23 14 3c 94 c9 13 bc 24 1a 98 bc
       -0.0013373375 0.009041705 -0.009020228 -0.018567152
000270 ec 34 0f 3b 62 bd f9 3a 43 9a cb bb 43 18 a3 bb
       0.0021851612 0.0019053633 -0.006213458 -0.0049772575
000280 9a f9 ad bb 7f 0c 94 bc b8 17 eb bb 00 55 05 3b
       -0.005309296 -0.018072365 -0.0071744584 0.0020344853
000290 b5 07 00 bc ae f3 f8 3b 1b b7 7d 3b 80 59 27 3c
       -0.0078143375 0.0075974083 0.0038713876 0.01021421
0002a0 1c 5a 84 3c 4c f7 f6 bb cc ee 8e bb 94 4d 86 bb
       0.016156249 -0.0075368043 -0.004361963 -0.0040986035
0002b0 3e 5c da b8 39 7a 9d bb 6d 47 6c 3b 4e 14 d2 3b
       -0.000104122315 -0.00480583 0.0036053315 0.006411112
0002c0 aa 16 a6 bb 41 ba ec bb 58 c4 5e bb 03 e4 c1 ba
       -0.0050686197 -0.0072243516 -0.0033991542 -0.0014792684
0002d0 0f 15 4c 3b d7 21 63 3c d5 45 99 bb d2 42 26 bc
       0.0031140482 0.0138630485 -0.004677514 -0.010147767
0002e0 48 6a b8 3b 8a 03 8c bb bf c2 5b bc df 12 6c 3c
       0.005627904 -0.004272883 -0.01341313 0.014408796
0002f0 3e 0f b7 3b 93 66 42 bc 56 09 2b 3b 91 41 15 bc
       0.005586534 -0.011865276 0.0026098094 -0.0091098705
000300 67 4e 2b bb 48 3b fa 39 2e 1a 3b 3c cd 90 83 bb
       -0.002613926 0.00047727884 0.011419816 -0.0040150643
000310 4f 89 90 bb b8 85 d4 3b 52 e8 1e 3b d3 05 12 3c
       -0.0044108997 0.006485667 0.002424736 0.008912521
000320 07 bf 02 bc 84 11 6a bc 17 5f be ba 70 9c 23 bc
       -0.007980115 -0.014286403 -0.0014524189 -0.009986028
000330 c8 68 0a 3b 81 d1 f0 bb 4a b7 62 ba 83 00 b2 3a
       0.0021119583 -0.0073491936 -0.0008648528 0.0013580475
000340 ff 73 39 bb 2f d7 52 3c f3 32 03 3c 72 c9 75 3b
       -0.0028297899 0.012868687 0.008007753 0.0037504104
000350 9c 00 33 3b b4 cf d2 bb 23 ce 29 bc 23 88 34 bc
       0.0027313596 -0.0064334515 -0.010364088 -0.011018786
000360 b0 18 cb b9 16 63 39 bb cf 12 46 3c 9b ab 11 bc
       -0.0003873757 -0.002828782 0.012089445 -0.008891012
000370 33 b8 2c bc 46 ee f0 3b 06 2c a5 3b ff 8b 29 bc
       -0.010541963 0.007352623 0.0050406484 -0.010348319
000380 45 df 36 bc 94 db 05 3c bb cf 6e bb 95 02 81 bc
       -0.01116163 0.008170027 -0.0036439735 -0.015748302
000390 d9 1e d2 3b 20 4f 51 3b 32 00 34 3c 23 23 85 3c
       0.0064123687 0.0031938031 0.010986375 0.016252106
0003a0 0a a4 bf bb c9 c0 67 bc 02 9a bc ba 45 f9 b9 bb
       -0.0058484124 -0.014145085 -0.001438916 -0.005675467
0003b0 d7 76 c0 3b f8 60 06 bc 04 e0 0a bc 66 fc 55 bc
       0.005873542 -0.00820183 -0.008476261 -0.013060665
0003c0 32 42 e6 bb 25 2a 62 3a 4d c3 9f b9 b7 3f 0f 3c
       -0.007026934 0.0008627496 -0.00030472354 0.008743218
0003d0 43 3b 30 3c ff 44 c9 3a a3 aa 16 3c b0 74 40 3a
       0.010756317 0.0015355645 0.009195956 0.00073416065
0003e0 01 b4 f9 39 b2 15 60 bc b4 c9 12 39 98 9b bf bb
       0.00047627094 -0.013677048 0.00013998785 -0.0058474056
0003f0 c6 aa 3d 3b 2d 86 75 38 64 83 99 3b aa 21 40 3b
       0.00289409 5.8537513e-05 0.0046848524 0.002931694

net.3.linear.bias f4 [128]
000000 4e 2c bc bc e9 d4 fc 3c 86 c0 90 3c 60 7f b5 3d
       -0.022970345 0.030863242 0.017669927 0.088621855
000010 75 b4 f6 bc c9 14 99 3c 72 3f 5a bd 80 42 96 bd
       -0.030115345 0.018686669 -0.053283162 -0.073369026
000020 a2 cd 85 bc b4 30 38 3d 17 ef a1 3d 57 f5 54 bc
       -0.016333405 0.044968322 0.07906931 -0.012997947
000030 73 28 96 3d e8 1d 82 3d f7 ff 3b bd fa ea d6 bc
       0.07331934 0.063533604 -0.045898404 -0.026235092
000040 f6 9a 4a bc 4c 22 91 bc 61 e4 12 bd e2 db 2c 3c
       -0.012366047 -0.01771655 -0.03586233 0.010550471
000050 e7 b2 af 3d 6d da 6c bd ae 65 1c bd 18 d5 21 3c
       0.08579045 -0.057825495 -0.038182907 0.009877466
000060 38 3a f9 bc fb 6f a4 3c 26 86 93 3d 8b 9d 94 bd
       -0.030423269 0.020072928 0.07203321 -0.072566114
000070 fe cd 85 3d 71 7f 8b bc 61 7a 8c bd e3 59 be bc
       0.065334305 -0.017028542 -0.068592794 -0.02323622
000080 9a 4a 06 3d 43 5c 59 bd e5 bf 57 3d d9 82 52 3d
       0.03278599 -0.053066503 0.05267324 0.051394317
000090 b3 12 cf bd c2 43 6e bd 8a 9e ba 3d 51 0d a9 bc
       -0.101109885 -0.058170088 0.0911227 -0.020636233
0000a0 5c 7e 3f 3d 01 57 10 3d 06 44 8c bd f0 c8 bd 3d
       0.046751365 0.035239223 -0.06848912 0.092668414
0000b0 15 7e 0a bd b3 63 80 3d 3f bf f4 bc 54 3a 4d 3d
       -0.033811647 0.06269016 -0.02987635 0.050104454
0000c0 d2 4b 4e 3c cd 9e 47 bd 49 b9 a0 bd 6b 1a fd 3c
       0.012591319 -0.04873543 -0.0784784 0.030896386
0000d0 d9 db 97 3d b8 75 80 3d a2 8a 88 3d bb 68 b4 bd
       0.074149795 0.06272453 0.06667067 -0.08809038
0000e0 d1 1e 9e 3c b4 bb 59 bd b9 95 29 bd 06 8b 8a 3d
       0.019301804 -0.053157523 -0.041402552 0.06764798
0000f0 60 4e 98 bd 4f de b7 bd 38 df 02 3b c9 70 a7 3d
       -0.07436824 -0.08977949 0.0019969475 0.08175809
000100 d4 2c 76 3c 8d bf 66 3d 59 c6 a9 bd 98 69 89 bd
       0.015025336 0.05633502 -0.08289785 -0.067095935
000110 37 b3 13 bd 72 32 8d bd b9 e5 86 3d de 66 30 bc
       -0.036059584 -0.06894387 0.06586785 -0.010766713
000120 fa 02 94 bd d4 66 9f bd 8b 45 ad 3d 7a 0c 82 bb
       -0.0722713 -0.07783285 0.0846053 -0.0039687725
000130 8a a9 8e 3d 47 3e ec ba 5a 06 b2 bb b6 1e b6 3c
       0.06965931 -0.0018023931 -0.005432886 0.022231441
000140 cd 11 3c 3d 8e d9 91 3d aa 0a 71 bd ad 6b bf bc
       0.045915414 0.071215734 -0.05884806 -0.023366774
000150 eb a9 a5 bd f9 1d bf 3d 86 15 8e bd 2f 7c d6 bc
       -0.0808905 0.09331889 -0.06937699 -0.026182262
000160 27 7b ae bc f7 d8 90 3d 69 0c 7b 3d fd 32 50 3d
       -0.021298958 0.07072633 0.061291132 0.050829876
000170 cb 44 0f 3c a9 eb c0 bc cb 7f 67 3d 1c 2a 57 bd
       0.008744429 -0.023549872 0.056518357 -0.052530393
000180 a7 a6 31 3b 8b 05 52 3d b3 d1 48 3d be 90 85 bb
       0.002710739 0.051274817 0.04902811 -0.0040760925
000190 3a 30 33 bd f7 f9 43 3d d0 84 20 bc 63 6b 97 3d
       -0.043747164 0.047845807 -0.00979729 0.07393529
0001a0 2d 57 5b 3d 10 0a 80 bc 9f 34 42 bd 46 cb b0 bd
       0.053549934 -0.015629798 -0.047413465 -0.08632521
0001b0 08 dc cf bb 72 81 80 3d a0 89 bf 3c c3 d2 7d 3d
       -0.0063433684 0.0627469 0.023381054 0.061968576
0001c0 f2 fd 0f bd aa 4e 2b bd 41 c7 a3 bd 72 2f 74 bd
       -0.03515429 -0.041823067 -0.07996989 -0.05961556
0001d0 9b af 65 3b cd 41 23 bd 8d 45 55 bd 33 e3 8b bd
       0.0035047296 -0.039857674 -0.052068282 -0.06830444
0001e0 c5 3a aa bd 78 bc 83 bd dc 2d 6e bd 71 88 1d bd
       -0.08311991 -0.06432432 -0.058149204 -0.0384602
0001f0 e9 3e b0 bd fe 15 08 bd 7a 3d ff 3c a6 a6 8e 3c
       -0.08605749 -0.0332241 0.031157244 0.017413449

net.4.weight f4 [1, 128]
000000 96 e6 aa bc 56 18 3c bc a8 76 0f bc ac 34 41 bc
       -0.020861905 -0.0114804115 -0.008756317 -0.011792343
000010 73 cc 28 3c e7 6c 25 bc 02 41 61 bc d1 20 39 3c
       0.010302651 -0.010096765 -0.013748409 0.011299328
000020 bb 40 8e bc 29 4a 34 bc 64 2b 4e 3c 73 23 4a 3c
       -0.01736485 -0.011004009 0.012583587 0.012337553
000030 27 74 1c bc 63 8f 5b 3c c2 a2 64 bc 5a 52 79 bc
       -0.009549177 0.013400885 -0.01395482 -0.015217388
000040 ad 1a aa bc c6 d4 31 3c 51 a5 5e bc 58 f2 5a bc
       -0.020764673 0.010853952 -0.013589219 -0.013363443
000050 da 8a 2b bc a0 13 15 3c a3 2d 3f bc 77 ab a5 3c
       -0.0104701165 0.009098917 -0.0116685955 0.020223362
000060 c0 5f 59 3c 8e 0c 76 3c 99 13 98 3c 4c 79 56 bc
       0.0132674575 0.015017642 0.018564032 -0.013090443
000070 52 5b 3c bc be 91 3b 3c 35 96 b3 bc 02 2a 65 3c
       -0.011496382 0.011448322 -0.02192221 0.013987066
000080 f6 ee 4a bc 67 ad 94 bc eb b0 3c bc 52 3f de 3c
       -0.012386074 -0.01814909 -0.01151679 0.027129803
000090 31 17 41 3c ac f0 00 3c 14 9c 2c bc 52 94 8b bc
       0.011785314 0.007869881 -0.010535259 -0.017038498
0000a0 8e cb 52 bc 5d 97 45 bc 98 a3 8c bc 22 71 55 bc
       -0.012865914 -0.012060014 -0.017167851 -0.013027461
0000b0 51 17 2e 3c d0 36 05 bc 92 af 37 3c a3 e6 ae 3c
       0.010625676 -0.008130744 0.011211293 0.02135021
0000c0 26 53 4f 3c 04 7c b2 bc 3f 77 86 bc 29 ba b6 3c
       0.0126541015 -0.02178765 -0.016414283 0.022305565
0000d0 d2 fe 6f 3c e3 4c 3a 3c 3b bd 6f 3c 63 25 04 3c
       0.014648156 0.01137087 0.014632518 0.008065554
0000e0 b5 d3 53 3c a9 b4 a3 3c 11 c7 37 3c 75 4b 6c 3c
       0.012928893 0.019983606 0.011216895 0.014422287
0000f0 41 18 9c bc 6a 7f 7f bc da 28 30 bc 79 1f 43 3c
       -0.019054534 -0.015594343 -0.010751927 0.011909359
000100 13 11 33 bc d3 90 ad 3c 5d 10 66 3c 5b 79 8f bc
       -0.010929364 0.021187222 0.014041987 -0.017513921
000110 13 81 6f bc 5b 31 9d bc 8b 4f bf bc 49 94 2f 3c
       -0.014618176 -0.019188574 -0.023353359 0.010716506
000120 04 2b 83 bc ec f2 46 bc cc bf c3 3c 66 a5 39 bc
       -0.016011722 -0.012142878 0.023895167 -0.011330938
000130 28 7c a3 3c 99 37 3e 3c b8 af 15 bd 02 20 2f bc
       0.019956663 0.011609935 -0.03654453 -0.010688784
000140 8e bc cc 3c 04 9b 31 bc 40 70 bb bc f1 ca bb bc
       0.024992254 -0.010840181 -0.022880673 -0.022923918
000150 67 12 36 bc 43 5b 0f bc be 21 4e bc f7 87 54 3c
       -0.011112786 -0.008749786 -0.012581287 0.01297187
000160 55 92 8b bc 98 da 7f 3c fb f1 b2 3c 39 c9 3f 3c
       -0.01703755 0.015616082 0.0218439 0.01170569
000170 13 57 27 3c 25 9f a9 bc dc b3 44 3c 51 dd 35 3c
       0.010213631 -0.020705769 0.012005772 0.011100129
000180 f1 b4 2e bc 1e 21 63 3c 60 70 75 3c a0 dd 17 3c
       -0.010663257 0.013862876 0.014980406 0.009269148
000190 73 c2 2c 3c 53 43 1e bc 18 44 5d bc 1f c7 59 bc
       0.010544407 -0.009659606 -0.013505004 -0.013292103
0001a0 2c 92 e3 bc 9d a1 53 bc 45 67 b9 bc ee 73 2a 3c
       -0.027779661 -0.01291695 -0.02263225 0.010403616
0001b0 b9 8c 8d bc 04 4b cd 3c 9a 4b 31 bc 58 c8 82 3c
       -0.017279016 0.025060184 -0.0108212475 0.015964672
0001c0 d1 0a 39 3c 64 9a 31 3c 82 e2 5f 3c ce 36 55 bc
       0.011294083 0.010840032 0.0136648435 -0.013013555
0001d0 db 62 5a bc f7 cc d0 bc b9 de 62 bc f4 80 96 bc
       -0.013329233 -0.02548836 -0.0138470465 -0.018372037
0001e0 19 ce 24 3c 08 8e 4d bc d0 ce 3b 3c 9d d6 97 3c
       0.010058903 -0.01254607 0.011462882 0.018534953
0001f0 d6 07 41 3c 1c 6a 3b 3c 2d 34 8b 3c 96 b5 38 3c
       0.011781653 0.011438873 0.016992653 0.011273762
